{
  "nodes": [
    {
      "op": "null", 
      "param": {}, 
      "name": "data", 
      "inputs": [], 
      "backward_source_id": -1
    }, 
    {
      "op": "null", 
      "param": {}, 
      "name": "bn_data_gamma", 
      "inputs": [], 
      "backward_source_id": -1
    }, 
    {
      "op": "null", 
      "param": {}, 
      "name": "bn_data_beta", 
      "inputs": [], 
      "backward_source_id": -1
    }, 
    {
      "op": "BatchNorm", 
      "param": {
        "eps": "2e-05", 
        "fix_gamma": "True", 
        "momentum": "0.9", 
        "use_global_stats": "False"
      }, 
      "name": "bn_data", 
      "inputs": [[0, 0], [1, 0], [2, 0]], 
      "backward_source_id": -1
    }, 
    {
      "op": "null", 
      "param": {}, 
      "name": "conv0_weight", 
      "inputs": [], 
      "backward_source_id": -1
    }, 
    {
      "op": "Convolution", 
      "param": {
        "cudnn_tune": "limited_workspace", 
        "dilate": "(1,1)", 
        "kernel": "(7,7)", 
        "no_bias": "True", 
        "num_filter": "64", 
        "num_group": "1", 
        "pad": "(3,3)", 
        "stride": "(2,2)", 
        "workspace": "512"
      }, 
      "name": "conv0", 
      "inputs": [[3, 0], [4, 0]], 
      "backward_source_id": -1
    }, 
    {
      "op": "null", 
      "param": {}, 
      "name": "bn0_gamma", 
      "inputs": [], 
      "backward_source_id": -1
    }, 
    {
      "op": "null", 
      "param": {}, 
      "name": "bn0_beta", 
      "inputs": [], 
      "backward_source_id": -1
    }, 
    {
      "op": "BatchNorm", 
      "param": {
        "eps": "2e-05", 
        "fix_gamma": "False", 
        "momentum": "0.9", 
        "use_global_stats": "False"
      }, 
      "name": "bn0", 
      "inputs": [[5, 0], [6, 0], [7, 0]], 
      "backward_source_id": -1
    }, 
    {
      "op": "Activation", 
      "param": {"act_type": "relu"}, 
      "name": "relu0", 
      "inputs": [[8, 0]], 
      "backward_source_id": -1
    }, 
    {
      "op": "Pooling", 
      "param": {
        "global_pool": "False", 
        "kernel": "(3,3)", 
        "pad": "(1,1)", 
        "pool_type": "max", 
        "stride": "(2,2)"
      }, 
      "name": "pooling0", 
      "inputs": [[9, 0]], 
      "backward_source_id": -1
    }, 
    {
      "op": "null", 
      "param": {}, 
      "name": "stage1_unit1_bn1_gamma", 
      "inputs": [], 
      "backward_source_id": -1
    }, 
    {
      "op": "null", 
      "param": {}, 
      "name": "stage1_unit1_bn1_beta", 
      "inputs": [], 
      "backward_source_id": -1
    }, 
    {
      "op": "BatchNorm", 
      "param": {
        "eps": "2e-05", 
        "fix_gamma": "False", 
        "momentum": "0.9", 
        "use_global_stats": "False"
      }, 
      "name": "stage1_unit1_bn1", 
      "inputs": [[10, 0], [11, 0], [12, 0]], 
      "backward_source_id": -1
    }, 
    {
      "op": "Activation", 
      "param": {"act_type": "relu"}, 
      "name": "stage1_unit1_relu1", 
      "inputs": [[13, 0]], 
      "backward_source_id": -1
    }, 
    {
      "op": "null", 
      "param": {}, 
      "name": "stage1_unit1_conv1_weight", 
      "inputs": [], 
      "backward_source_id": -1
    }, 
    {
      "op": "Convolution", 
      "param": {
        "cudnn_tune": "limited_workspace", 
        "dilate": "(1,1)", 
        "kernel": "(1,1)", 
        "no_bias": "True", 
        "num_filter": "64", 
        "num_group": "1", 
        "pad": "(0,0)", 
        "stride": "(1,1)", 
        "workspace": "512"
      }, 
      "name": "stage1_unit1_conv1", 
      "inputs": [[14, 0], [15, 0]], 
      "backward_source_id": -1
    }, 
    {
      "op": "null", 
      "param": {}, 
      "name": "stage1_unit1_bn2_gamma", 
      "inputs": [], 
      "backward_source_id": -1
    }, 
    {
      "op": "null", 
      "param": {}, 
      "name": "stage1_unit1_bn2_beta", 
      "inputs": [], 
      "backward_source_id": -1
    }, 
    {
      "op": "BatchNorm", 
      "param": {
        "eps": "2e-05", 
        "fix_gamma": "False", 
        "momentum": "0.9", 
        "use_global_stats": "False"
      }, 
      "name": "stage1_unit1_bn2", 
      "inputs": [[16, 0], [17, 0], [18, 0]], 
      "backward_source_id": -1
    }, 
    {
      "op": "Activation", 
      "param": {"act_type": "relu"}, 
      "name": "stage1_unit1_relu2", 
      "inputs": [[19, 0]], 
      "backward_source_id": -1
    }, 
    {
      "op": "null", 
      "param": {}, 
      "name": "stage1_unit1_conv2_weight", 
      "inputs": [], 
      "backward_source_id": -1
    }, 
    {
      "op": "Convolution", 
      "param": {
        "cudnn_tune": "limited_workspace", 
        "dilate": "(1,1)", 
        "kernel": "(3,3)", 
        "no_bias": "True", 
        "num_filter": "64", 
        "num_group": "1", 
        "pad": "(1,1)", 
        "stride": "(1,1)", 
        "workspace": "512"
      }, 
      "name": "stage1_unit1_conv2", 
      "inputs": [[20, 0], [21, 0]], 
      "backward_source_id": -1
    }, 
    {
      "op": "null", 
      "param": {}, 
      "name": "stage1_unit1_bn3_gamma", 
      "inputs": [], 
      "backward_source_id": -1
    }, 
    {
      "op": "null", 
      "param": {}, 
      "name": "stage1_unit1_bn3_beta", 
      "inputs": [], 
      "backward_source_id": -1
    }, 
    {
      "op": "BatchNorm", 
      "param": {
        "eps": "2e-05", 
        "fix_gamma": "False", 
        "momentum": "0.9", 
        "use_global_stats": "False"
      }, 
      "name": "stage1_unit1_bn3", 
      "inputs": [[22, 0], [23, 0], [24, 0]], 
      "backward_source_id": -1
    }, 
    {
      "op": "Activation", 
      "param": {"act_type": "relu"}, 
      "name": "stage1_unit1_relu3", 
      "inputs": [[25, 0]], 
      "backward_source_id": -1
    }, 
    {
      "op": "null", 
      "param": {}, 
      "name": "stage1_unit1_conv3_weight", 
      "inputs": [], 
      "backward_source_id": -1
    }, 
    {
      "op": "Convolution", 
      "param": {
        "cudnn_tune": "limited_workspace", 
        "dilate": "(1,1)", 
        "kernel": "(1,1)", 
        "no_bias": "True", 
        "num_filter": "256", 
        "num_group": "1", 
        "pad": "(0,0)", 
        "stride": "(1,1)", 
        "workspace": "512"
      }, 
      "name": "stage1_unit1_conv3", 
      "inputs": [[26, 0], [27, 0]], 
      "backward_source_id": -1
    }, 
    {
      "op": "null", 
      "param": {}, 
      "name": "stage1_unit1_sc_weight", 
      "inputs": [], 
      "backward_source_id": -1
    }, 
    {
      "op": "Convolution", 
      "param": {
        "cudnn_tune": "limited_workspace", 
        "dilate": "(1,1)", 
        "kernel": "(1,1)", 
        "no_bias": "True", 
        "num_filter": "256", 
        "num_group": "1", 
        "pad": "(0,0)", 
        "stride": "(1,1)", 
        "workspace": "512"
      }, 
      "name": "stage1_unit1_sc", 
      "inputs": [[14, 0], [29, 0]], 
      "backward_source_id": -1
    }, 
    {
      "op": "_Plus", 
      "param": {}, 
      "name": "_plus0", 
      "inputs": [[28, 0], [30, 0]], 
      "backward_source_id": -1
    }, 
    {
      "op": "null", 
      "param": {}, 
      "name": "stage1_unit2_bn1_gamma", 
      "inputs": [], 
      "backward_source_id": -1
    }, 
    {
      "op": "null", 
      "param": {}, 
      "name": "stage1_unit2_bn1_beta", 
      "inputs": [], 
      "backward_source_id": -1
    }, 
    {
      "op": "BatchNorm", 
      "param": {
        "eps": "2e-05", 
        "fix_gamma": "False", 
        "momentum": "0.9", 
        "use_global_stats": "False"
      }, 
      "name": "stage1_unit2_bn1", 
      "inputs": [[31, 0], [32, 0], [33, 0]], 
      "backward_source_id": -1
    }, 
    {
      "op": "Activation", 
      "param": {"act_type": "relu"}, 
      "name": "stage1_unit2_relu1", 
      "inputs": [[34, 0]], 
      "backward_source_id": -1
    }, 
    {
      "op": "null", 
      "param": {}, 
      "name": "stage1_unit2_conv1_weight", 
      "inputs": [], 
      "backward_source_id": -1
    }, 
    {
      "op": "Convolution", 
      "param": {
        "cudnn_tune": "limited_workspace", 
        "dilate": "(1,1)", 
        "kernel": "(1,1)", 
        "no_bias": "True", 
        "num_filter": "64", 
        "num_group": "1", 
        "pad": "(0,0)", 
        "stride": "(1,1)", 
        "workspace": "512"
      }, 
      "name": "stage1_unit2_conv1", 
      "inputs": [[35, 0], [36, 0]], 
      "backward_source_id": -1
    }, 
    {
      "op": "null", 
      "param": {}, 
      "name": "stage1_unit2_bn2_gamma", 
      "inputs": [], 
      "backward_source_id": -1
    }, 
    {
      "op": "null", 
      "param": {}, 
      "name": "stage1_unit2_bn2_beta", 
      "inputs": [], 
      "backward_source_id": -1
    }, 
    {
      "op": "BatchNorm", 
      "param": {
        "eps": "2e-05", 
        "fix_gamma": "False", 
        "momentum": "0.9", 
        "use_global_stats": "False"
      }, 
      "name": "stage1_unit2_bn2", 
      "inputs": [[37, 0], [38, 0], [39, 0]], 
      "backward_source_id": -1
    }, 
    {
      "op": "Activation", 
      "param": {"act_type": "relu"}, 
      "name": "stage1_unit2_relu2", 
      "inputs": [[40, 0]], 
      "backward_source_id": -1
    }, 
    {
      "op": "null", 
      "param": {}, 
      "name": "stage1_unit2_conv2_weight", 
      "inputs": [], 
      "backward_source_id": -1
    }, 
    {
      "op": "Convolution", 
      "param": {
        "cudnn_tune": "limited_workspace", 
        "dilate": "(1,1)", 
        "kernel": "(3,3)", 
        "no_bias": "True", 
        "num_filter": "64", 
        "num_group": "1", 
        "pad": "(1,1)", 
        "stride": "(1,1)", 
        "workspace": "512"
      }, 
      "name": "stage1_unit2_conv2", 
      "inputs": [[41, 0], [42, 0]], 
      "backward_source_id": -1
    }, 
    {
      "op": "null", 
      "param": {}, 
      "name": "stage1_unit2_bn3_gamma", 
      "inputs": [], 
      "backward_source_id": -1
    }, 
    {
      "op": "null", 
      "param": {}, 
      "name": "stage1_unit2_bn3_beta", 
      "inputs": [], 
      "backward_source_id": -1
    }, 
    {
      "op": "BatchNorm", 
      "param": {
        "eps": "2e-05", 
        "fix_gamma": "False", 
        "momentum": "0.9", 
        "use_global_stats": "False"
      }, 
      "name": "stage1_unit2_bn3", 
      "inputs": [[43, 0], [44, 0], [45, 0]], 
      "backward_source_id": -1
    }, 
    {
      "op": "Activation", 
      "param": {"act_type": "relu"}, 
      "name": "stage1_unit2_relu3", 
      "inputs": [[46, 0]], 
      "backward_source_id": -1
    }, 
    {
      "op": "null", 
      "param": {}, 
      "name": "stage1_unit2_conv3_weight", 
      "inputs": [], 
      "backward_source_id": -1
    }, 
    {
      "op": "Convolution", 
      "param": {
        "cudnn_tune": "limited_workspace", 
        "dilate": "(1,1)", 
        "kernel": "(1,1)", 
        "no_bias": "True", 
        "num_filter": "256", 
        "num_group": "1", 
        "pad": "(0,0)", 
        "stride": "(1,1)", 
        "workspace": "512"
      }, 
      "name": "stage1_unit2_conv3", 
      "inputs": [[47, 0], [48, 0]], 
      "backward_source_id": -1
    }, 
    {
      "op": "_Plus", 
      "param": {}, 
      "name": "_plus1", 
      "inputs": [[49, 0], [31, 0]], 
      "backward_source_id": -1
    }, 
    {
      "op": "null", 
      "param": {}, 
      "name": "stage1_unit3_bn1_gamma", 
      "inputs": [], 
      "backward_source_id": -1
    }, 
    {
      "op": "null", 
      "param": {}, 
      "name": "stage1_unit3_bn1_beta", 
      "inputs": [], 
      "backward_source_id": -1
    }, 
    {
      "op": "BatchNorm", 
      "param": {
        "eps": "2e-05", 
        "fix_gamma": "False", 
        "momentum": "0.9", 
        "use_global_stats": "False"
      }, 
      "name": "stage1_unit3_bn1", 
      "inputs": [[50, 0], [51, 0], [52, 0]], 
      "backward_source_id": -1
    }, 
    {
      "op": "Activation", 
      "param": {"act_type": "relu"}, 
      "name": "stage1_unit3_relu1", 
      "inputs": [[53, 0]], 
      "backward_source_id": -1
    }, 
    {
      "op": "null", 
      "param": {}, 
      "name": "stage1_unit3_conv1_weight", 
      "inputs": [], 
      "backward_source_id": -1
    }, 
    {
      "op": "Convolution", 
      "param": {
        "cudnn_tune": "limited_workspace", 
        "dilate": "(1,1)", 
        "kernel": "(1,1)", 
        "no_bias": "True", 
        "num_filter": "64", 
        "num_group": "1", 
        "pad": "(0,0)", 
        "stride": "(1,1)", 
        "workspace": "512"
      }, 
      "name": "stage1_unit3_conv1", 
      "inputs": [[54, 0], [55, 0]], 
      "backward_source_id": -1
    }, 
    {
      "op": "null", 
      "param": {}, 
      "name": "stage1_unit3_bn2_gamma", 
      "inputs": [], 
      "backward_source_id": -1
    }, 
    {
      "op": "null", 
      "param": {}, 
      "name": "stage1_unit3_bn2_beta", 
      "inputs": [], 
      "backward_source_id": -1
    }, 
    {
      "op": "BatchNorm", 
      "param": {
        "eps": "2e-05", 
        "fix_gamma": "False", 
        "momentum": "0.9", 
        "use_global_stats": "False"
      }, 
      "name": "stage1_unit3_bn2", 
      "inputs": [[56, 0], [57, 0], [58, 0]], 
      "backward_source_id": -1
    }, 
    {
      "op": "Activation", 
      "param": {"act_type": "relu"}, 
      "name": "stage1_unit3_relu2", 
      "inputs": [[59, 0]], 
      "backward_source_id": -1
    }, 
    {
      "op": "null", 
      "param": {}, 
      "name": "stage1_unit3_conv2_weight", 
      "inputs": [], 
      "backward_source_id": -1
    }, 
    {
      "op": "Convolution", 
      "param": {
        "cudnn_tune": "limited_workspace", 
        "dilate": "(1,1)", 
        "kernel": "(3,3)", 
        "no_bias": "True", 
        "num_filter": "64", 
        "num_group": "1", 
        "pad": "(1,1)", 
        "stride": "(1,1)", 
        "workspace": "512"
      }, 
      "name": "stage1_unit3_conv2", 
      "inputs": [[60, 0], [61, 0]], 
      "backward_source_id": -1
    }, 
    {
      "op": "null", 
      "param": {}, 
      "name": "stage1_unit3_bn3_gamma", 
      "inputs": [], 
      "backward_source_id": -1
    }, 
    {
      "op": "null", 
      "param": {}, 
      "name": "stage1_unit3_bn3_beta", 
      "inputs": [], 
      "backward_source_id": -1
    }, 
    {
      "op": "BatchNorm", 
      "param": {
        "eps": "2e-05", 
        "fix_gamma": "False", 
        "momentum": "0.9", 
        "use_global_stats": "False"
      }, 
      "name": "stage1_unit3_bn3", 
      "inputs": [[62, 0], [63, 0], [64, 0]], 
      "backward_source_id": -1
    }, 
    {
      "op": "Activation", 
      "param": {"act_type": "relu"}, 
      "name": "stage1_unit3_relu3", 
      "inputs": [[65, 0]], 
      "backward_source_id": -1
    }, 
    {
      "op": "null", 
      "param": {}, 
      "name": "stage1_unit3_conv3_weight", 
      "inputs": [], 
      "backward_source_id": -1
    }, 
    {
      "op": "Convolution", 
      "param": {
        "cudnn_tune": "limited_workspace", 
        "dilate": "(1,1)", 
        "kernel": "(1,1)", 
        "no_bias": "True", 
        "num_filter": "256", 
        "num_group": "1", 
        "pad": "(0,0)", 
        "stride": "(1,1)", 
        "workspace": "512"
      }, 
      "name": "stage1_unit3_conv3", 
      "inputs": [[66, 0], [67, 0]], 
      "backward_source_id": -1
    }, 
    {
      "op": "_Plus", 
      "param": {}, 
      "name": "_plus2", 
      "inputs": [[68, 0], [50, 0]], 
      "backward_source_id": -1
    }, 
    {
      "op": "null", 
      "param": {}, 
      "name": "stage2_unit1_bn1_gamma", 
      "inputs": [], 
      "backward_source_id": -1
    }, 
    {
      "op": "null", 
      "param": {}, 
      "name": "stage2_unit1_bn1_beta", 
      "inputs": [], 
      "backward_source_id": -1
    }, 
    {
      "op": "BatchNorm", 
      "param": {
        "eps": "2e-05", 
        "fix_gamma": "False", 
        "momentum": "0.9", 
        "use_global_stats": "False"
      }, 
      "name": "stage2_unit1_bn1", 
      "inputs": [[69, 0], [70, 0], [71, 0]], 
      "backward_source_id": -1
    }, 
    {
      "op": "Activation", 
      "param": {"act_type": "relu"}, 
      "name": "stage2_unit1_relu1", 
      "inputs": [[72, 0]], 
      "backward_source_id": -1
    }, 
    {
      "op": "null", 
      "param": {}, 
      "name": "stage2_unit1_conv1_weight", 
      "inputs": [], 
      "backward_source_id": -1
    }, 
    {
      "op": "Convolution", 
      "param": {
        "cudnn_tune": "limited_workspace", 
        "dilate": "(1,1)", 
        "kernel": "(1,1)", 
        "no_bias": "True", 
        "num_filter": "128", 
        "num_group": "1", 
        "pad": "(0,0)", 
        "stride": "(1,1)", 
        "workspace": "512"
      }, 
      "name": "stage2_unit1_conv1", 
      "inputs": [[73, 0], [74, 0]], 
      "backward_source_id": -1
    }, 
    {
      "op": "null", 
      "param": {}, 
      "name": "stage2_unit1_bn2_gamma", 
      "inputs": [], 
      "backward_source_id": -1
    }, 
    {
      "op": "null", 
      "param": {}, 
      "name": "stage2_unit1_bn2_beta", 
      "inputs": [], 
      "backward_source_id": -1
    }, 
    {
      "op": "BatchNorm", 
      "param": {
        "eps": "2e-05", 
        "fix_gamma": "False", 
        "momentum": "0.9", 
        "use_global_stats": "False"
      }, 
      "name": "stage2_unit1_bn2", 
      "inputs": [[75, 0], [76, 0], [77, 0]], 
      "backward_source_id": -1
    }, 
    {
      "op": "Activation", 
      "param": {"act_type": "relu"}, 
      "name": "stage2_unit1_relu2", 
      "inputs": [[78, 0]], 
      "backward_source_id": -1
    }, 
    {
      "op": "null", 
      "param": {}, 
      "name": "stage2_unit1_conv2_weight", 
      "inputs": [], 
      "backward_source_id": -1
    }, 
    {
      "op": "Convolution", 
      "param": {
        "cudnn_tune": "limited_workspace", 
        "dilate": "(1,1)", 
        "kernel": "(3,3)", 
        "no_bias": "True", 
        "num_filter": "128", 
        "num_group": "1", 
        "pad": "(1,1)", 
        "stride": "(2,2)", 
        "workspace": "512"
      }, 
      "name": "stage2_unit1_conv2", 
      "inputs": [[79, 0], [80, 0]], 
      "backward_source_id": -1
    }, 
    {
      "op": "null", 
      "param": {}, 
      "name": "stage2_unit1_bn3_gamma", 
      "inputs": [], 
      "backward_source_id": -1
    }, 
    {
      "op": "null", 
      "param": {}, 
      "name": "stage2_unit1_bn3_beta", 
      "inputs": [], 
      "backward_source_id": -1
    }, 
    {
      "op": "BatchNorm", 
      "param": {
        "eps": "2e-05", 
        "fix_gamma": "False", 
        "momentum": "0.9", 
        "use_global_stats": "False"
      }, 
      "name": "stage2_unit1_bn3", 
      "inputs": [[81, 0], [82, 0], [83, 0]], 
      "backward_source_id": -1
    }, 
    {
      "op": "Activation", 
      "param": {"act_type": "relu"}, 
      "name": "stage2_unit1_relu3", 
      "inputs": [[84, 0]], 
      "backward_source_id": -1
    }, 
    {
      "op": "null", 
      "param": {}, 
      "name": "stage2_unit1_conv3_weight", 
      "inputs": [], 
      "backward_source_id": -1
    }, 
    {
      "op": "Convolution", 
      "param": {
        "cudnn_tune": "limited_workspace", 
        "dilate": "(1,1)", 
        "kernel": "(1,1)", 
        "no_bias": "True", 
        "num_filter": "512", 
        "num_group": "1", 
        "pad": "(0,0)", 
        "stride": "(1,1)", 
        "workspace": "512"
      }, 
      "name": "stage2_unit1_conv3", 
      "inputs": [[85, 0], [86, 0]], 
      "backward_source_id": -1
    }, 
    {
      "op": "null", 
      "param": {}, 
      "name": "stage2_unit1_sc_weight", 
      "inputs": [], 
      "backward_source_id": -1
    }, 
    {
      "op": "Convolution", 
      "param": {
        "cudnn_tune": "limited_workspace", 
        "dilate": "(1,1)", 
        "kernel": "(1,1)", 
        "no_bias": "True", 
        "num_filter": "512", 
        "num_group": "1", 
        "pad": "(0,0)", 
        "stride": "(2,2)", 
        "workspace": "512"
      }, 
      "name": "stage2_unit1_sc", 
      "inputs": [[73, 0], [88, 0]], 
      "backward_source_id": -1
    }, 
    {
      "op": "_Plus", 
      "param": {}, 
      "name": "_plus3", 
      "inputs": [[87, 0], [89, 0]], 
      "backward_source_id": -1
    }, 
    {
      "op": "null", 
      "param": {}, 
      "name": "stage2_unit2_bn1_gamma", 
      "inputs": [], 
      "backward_source_id": -1
    }, 
    {
      "op": "null", 
      "param": {}, 
      "name": "stage2_unit2_bn1_beta", 
      "inputs": [], 
      "backward_source_id": -1
    }, 
    {
      "op": "BatchNorm", 
      "param": {
        "eps": "2e-05", 
        "fix_gamma": "False", 
        "momentum": "0.9", 
        "use_global_stats": "False"
      }, 
      "name": "stage2_unit2_bn1", 
      "inputs": [[90, 0], [91, 0], [92, 0]], 
      "backward_source_id": -1
    }, 
    {
      "op": "Activation", 
      "param": {"act_type": "relu"}, 
      "name": "stage2_unit2_relu1", 
      "inputs": [[93, 0]], 
      "backward_source_id": -1
    }, 
    {
      "op": "null", 
      "param": {}, 
      "name": "stage2_unit2_conv1_weight", 
      "inputs": [], 
      "backward_source_id": -1
    }, 
    {
      "op": "Convolution", 
      "param": {
        "cudnn_tune": "limited_workspace", 
        "dilate": "(1,1)", 
        "kernel": "(1,1)", 
        "no_bias": "True", 
        "num_filter": "128", 
        "num_group": "1", 
        "pad": "(0,0)", 
        "stride": "(1,1)", 
        "workspace": "512"
      }, 
      "name": "stage2_unit2_conv1", 
      "inputs": [[94, 0], [95, 0]], 
      "backward_source_id": -1
    }, 
    {
      "op": "null", 
      "param": {}, 
      "name": "stage2_unit2_bn2_gamma", 
      "inputs": [], 
      "backward_source_id": -1
    }, 
    {
      "op": "null", 
      "param": {}, 
      "name": "stage2_unit2_bn2_beta", 
      "inputs": [], 
      "backward_source_id": -1
    }, 
    {
      "op": "BatchNorm", 
      "param": {
        "eps": "2e-05", 
        "fix_gamma": "False", 
        "momentum": "0.9", 
        "use_global_stats": "False"
      }, 
      "name": "stage2_unit2_bn2", 
      "inputs": [[96, 0], [97, 0], [98, 0]], 
      "backward_source_id": -1
    }, 
    {
      "op": "Activation", 
      "param": {"act_type": "relu"}, 
      "name": "stage2_unit2_relu2", 
      "inputs": [[99, 0]], 
      "backward_source_id": -1
    }, 
    {
      "op": "null", 
      "param": {}, 
      "name": "stage2_unit2_conv2_weight", 
      "inputs": [], 
      "backward_source_id": -1
    }, 
    {
      "op": "Convolution", 
      "param": {
        "cudnn_tune": "limited_workspace", 
        "dilate": "(1,1)", 
        "kernel": "(3,3)", 
        "no_bias": "True", 
        "num_filter": "128", 
        "num_group": "1", 
        "pad": "(1,1)", 
        "stride": "(1,1)", 
        "workspace": "512"
      }, 
      "name": "stage2_unit2_conv2", 
      "inputs": [[100, 0], [101, 0]], 
      "backward_source_id": -1
    }, 
    {
      "op": "null", 
      "param": {}, 
      "name": "stage2_unit2_bn3_gamma", 
      "inputs": [], 
      "backward_source_id": -1
    }, 
    {
      "op": "null", 
      "param": {}, 
      "name": "stage2_unit2_bn3_beta", 
      "inputs": [], 
      "backward_source_id": -1
    }, 
    {
      "op": "BatchNorm", 
      "param": {
        "eps": "2e-05", 
        "fix_gamma": "False", 
        "momentum": "0.9", 
        "use_global_stats": "False"
      }, 
      "name": "stage2_unit2_bn3", 
      "inputs": [[102, 0], [103, 0], [104, 0]], 
      "backward_source_id": -1
    }, 
    {
      "op": "Activation", 
      "param": {"act_type": "relu"}, 
      "name": "stage2_unit2_relu3", 
      "inputs": [[105, 0]], 
      "backward_source_id": -1
    }, 
    {
      "op": "null", 
      "param": {}, 
      "name": "stage2_unit2_conv3_weight", 
      "inputs": [], 
      "backward_source_id": -1
    }, 
    {
      "op": "Convolution", 
      "param": {
        "cudnn_tune": "limited_workspace", 
        "dilate": "(1,1)", 
        "kernel": "(1,1)", 
        "no_bias": "True", 
        "num_filter": "512", 
        "num_group": "1", 
        "pad": "(0,0)", 
        "stride": "(1,1)", 
        "workspace": "512"
      }, 
      "name": "stage2_unit2_conv3", 
      "inputs": [[106, 0], [107, 0]], 
      "backward_source_id": -1
    }, 
    {
      "op": "_Plus", 
      "param": {}, 
      "name": "_plus4", 
      "inputs": [[108, 0], [90, 0]], 
      "backward_source_id": -1
    }, 
    {
      "op": "null", 
      "param": {}, 
      "name": "stage2_unit3_bn1_gamma", 
      "inputs": [], 
      "backward_source_id": -1
    }, 
    {
      "op": "null", 
      "param": {}, 
      "name": "stage2_unit3_bn1_beta", 
      "inputs": [], 
      "backward_source_id": -1
    }, 
    {
      "op": "BatchNorm", 
      "param": {
        "eps": "2e-05", 
        "fix_gamma": "False", 
        "momentum": "0.9", 
        "use_global_stats": "False"
      }, 
      "name": "stage2_unit3_bn1", 
      "inputs": [[109, 0], [110, 0], [111, 0]], 
      "backward_source_id": -1
    }, 
    {
      "op": "Activation", 
      "param": {"act_type": "relu"}, 
      "name": "stage2_unit3_relu1", 
      "inputs": [[112, 0]], 
      "backward_source_id": -1
    }, 
    {
      "op": "null", 
      "param": {}, 
      "name": "stage2_unit3_conv1_weight", 
      "inputs": [], 
      "backward_source_id": -1
    }, 
    {
      "op": "Convolution", 
      "param": {
        "cudnn_tune": "limited_workspace", 
        "dilate": "(1,1)", 
        "kernel": "(1,1)", 
        "no_bias": "True", 
        "num_filter": "128", 
        "num_group": "1", 
        "pad": "(0,0)", 
        "stride": "(1,1)", 
        "workspace": "512"
      }, 
      "name": "stage2_unit3_conv1", 
      "inputs": [[113, 0], [114, 0]], 
      "backward_source_id": -1
    }, 
    {
      "op": "null", 
      "param": {}, 
      "name": "stage2_unit3_bn2_gamma", 
      "inputs": [], 
      "backward_source_id": -1
    }, 
    {
      "op": "null", 
      "param": {}, 
      "name": "stage2_unit3_bn2_beta", 
      "inputs": [], 
      "backward_source_id": -1
    }, 
    {
      "op": "BatchNorm", 
      "param": {
        "eps": "2e-05", 
        "fix_gamma": "False", 
        "momentum": "0.9", 
        "use_global_stats": "False"
      }, 
      "name": "stage2_unit3_bn2", 
      "inputs": [[115, 0], [116, 0], [117, 0]], 
      "backward_source_id": -1
    }, 
    {
      "op": "Activation", 
      "param": {"act_type": "relu"}, 
      "name": "stage2_unit3_relu2", 
      "inputs": [[118, 0]], 
      "backward_source_id": -1
    }, 
    {
      "op": "null", 
      "param": {}, 
      "name": "stage2_unit3_conv2_weight", 
      "inputs": [], 
      "backward_source_id": -1
    }, 
    {
      "op": "Convolution", 
      "param": {
        "cudnn_tune": "limited_workspace", 
        "dilate": "(1,1)", 
        "kernel": "(3,3)", 
        "no_bias": "True", 
        "num_filter": "128", 
        "num_group": "1", 
        "pad": "(1,1)", 
        "stride": "(1,1)", 
        "workspace": "512"
      }, 
      "name": "stage2_unit3_conv2", 
      "inputs": [[119, 0], [120, 0]], 
      "backward_source_id": -1
    }, 
    {
      "op": "null", 
      "param": {}, 
      "name": "stage2_unit3_bn3_gamma", 
      "inputs": [], 
      "backward_source_id": -1
    }, 
    {
      "op": "null", 
      "param": {}, 
      "name": "stage2_unit3_bn3_beta", 
      "inputs": [], 
      "backward_source_id": -1
    }, 
    {
      "op": "BatchNorm", 
      "param": {
        "eps": "2e-05", 
        "fix_gamma": "False", 
        "momentum": "0.9", 
        "use_global_stats": "False"
      }, 
      "name": "stage2_unit3_bn3", 
      "inputs": [[121, 0], [122, 0], [123, 0]], 
      "backward_source_id": -1
    }, 
    {
      "op": "Activation", 
      "param": {"act_type": "relu"}, 
      "name": "stage2_unit3_relu3", 
      "inputs": [[124, 0]], 
      "backward_source_id": -1
    }, 
    {
      "op": "null", 
      "param": {}, 
      "name": "stage2_unit3_conv3_weight", 
      "inputs": [], 
      "backward_source_id": -1
    }, 
    {
      "op": "Convolution", 
      "param": {
        "cudnn_tune": "limited_workspace", 
        "dilate": "(1,1)", 
        "kernel": "(1,1)", 
        "no_bias": "True", 
        "num_filter": "512", 
        "num_group": "1", 
        "pad": "(0,0)", 
        "stride": "(1,1)", 
        "workspace": "512"
      }, 
      "name": "stage2_unit3_conv3", 
      "inputs": [[125, 0], [126, 0]], 
      "backward_source_id": -1
    }, 
    {
      "op": "_Plus", 
      "param": {}, 
      "name": "_plus5", 
      "inputs": [[127, 0], [109, 0]], 
      "backward_source_id": -1
    }, 
    {
      "op": "null", 
      "param": {}, 
      "name": "stage2_unit4_bn1_gamma", 
      "inputs": [], 
      "backward_source_id": -1
    }, 
    {
      "op": "null", 
      "param": {}, 
      "name": "stage2_unit4_bn1_beta", 
      "inputs": [], 
      "backward_source_id": -1
    }, 
    {
      "op": "BatchNorm", 
      "param": {
        "eps": "2e-05", 
        "fix_gamma": "False", 
        "momentum": "0.9", 
        "use_global_stats": "False"
      }, 
      "name": "stage2_unit4_bn1", 
      "inputs": [[128, 0], [129, 0], [130, 0]], 
      "backward_source_id": -1
    }, 
    {
      "op": "Activation", 
      "param": {"act_type": "relu"}, 
      "name": "stage2_unit4_relu1", 
      "inputs": [[131, 0]], 
      "backward_source_id": -1
    }, 
    {
      "op": "null", 
      "param": {}, 
      "name": "stage2_unit4_conv1_weight", 
      "inputs": [], 
      "backward_source_id": -1
    }, 
    {
      "op": "Convolution", 
      "param": {
        "cudnn_tune": "limited_workspace", 
        "dilate": "(1,1)", 
        "kernel": "(1,1)", 
        "no_bias": "True", 
        "num_filter": "128", 
        "num_group": "1", 
        "pad": "(0,0)", 
        "stride": "(1,1)", 
        "workspace": "512"
      }, 
      "name": "stage2_unit4_conv1", 
      "inputs": [[132, 0], [133, 0]], 
      "backward_source_id": -1
    }, 
    {
      "op": "null", 
      "param": {}, 
      "name": "stage2_unit4_bn2_gamma", 
      "inputs": [], 
      "backward_source_id": -1
    }, 
    {
      "op": "null", 
      "param": {}, 
      "name": "stage2_unit4_bn2_beta", 
      "inputs": [], 
      "backward_source_id": -1
    }, 
    {
      "op": "BatchNorm", 
      "param": {
        "eps": "2e-05", 
        "fix_gamma": "False", 
        "momentum": "0.9", 
        "use_global_stats": "False"
      }, 
      "name": "stage2_unit4_bn2", 
      "inputs": [[134, 0], [135, 0], [136, 0]], 
      "backward_source_id": -1
    }, 
    {
      "op": "Activation", 
      "param": {"act_type": "relu"}, 
      "name": "stage2_unit4_relu2", 
      "inputs": [[137, 0]], 
      "backward_source_id": -1
    }, 
    {
      "op": "null", 
      "param": {}, 
      "name": "stage2_unit4_conv2_weight", 
      "inputs": [], 
      "backward_source_id": -1
    }, 
    {
      "op": "Convolution", 
      "param": {
        "cudnn_tune": "limited_workspace", 
        "dilate": "(1,1)", 
        "kernel": "(3,3)", 
        "no_bias": "True", 
        "num_filter": "128", 
        "num_group": "1", 
        "pad": "(1,1)", 
        "stride": "(1,1)", 
        "workspace": "512"
      }, 
      "name": "stage2_unit4_conv2", 
      "inputs": [[138, 0], [139, 0]], 
      "backward_source_id": -1
    }, 
    {
      "op": "null", 
      "param": {}, 
      "name": "stage2_unit4_bn3_gamma", 
      "inputs": [], 
      "backward_source_id": -1
    }, 
    {
      "op": "null", 
      "param": {}, 
      "name": "stage2_unit4_bn3_beta", 
      "inputs": [], 
      "backward_source_id": -1
    }, 
    {
      "op": "BatchNorm", 
      "param": {
        "eps": "2e-05", 
        "fix_gamma": "False", 
        "momentum": "0.9", 
        "use_global_stats": "False"
      }, 
      "name": "stage2_unit4_bn3", 
      "inputs": [[140, 0], [141, 0], [142, 0]], 
      "backward_source_id": -1
    }, 
    {
      "op": "Activation", 
      "param": {"act_type": "relu"}, 
      "name": "stage2_unit4_relu3", 
      "inputs": [[143, 0]], 
      "backward_source_id": -1
    }, 
    {
      "op": "null", 
      "param": {}, 
      "name": "stage2_unit4_conv3_weight", 
      "inputs": [], 
      "backward_source_id": -1
    }, 
    {
      "op": "Convolution", 
      "param": {
        "cudnn_tune": "limited_workspace", 
        "dilate": "(1,1)", 
        "kernel": "(1,1)", 
        "no_bias": "True", 
        "num_filter": "512", 
        "num_group": "1", 
        "pad": "(0,0)", 
        "stride": "(1,1)", 
        "workspace": "512"
      }, 
      "name": "stage2_unit4_conv3", 
      "inputs": [[144, 0], [145, 0]], 
      "backward_source_id": -1
    }, 
    {
      "op": "_Plus", 
      "param": {}, 
      "name": "_plus6", 
      "inputs": [[146, 0], [128, 0]], 
      "backward_source_id": -1
    }, 
    {
      "op": "null", 
      "param": {}, 
      "name": "stage3_unit1_bn1_gamma", 
      "inputs": [], 
      "backward_source_id": -1
    }, 
    {
      "op": "null", 
      "param": {}, 
      "name": "stage3_unit1_bn1_beta", 
      "inputs": [], 
      "backward_source_id": -1
    }, 
    {
      "op": "BatchNorm", 
      "param": {
        "eps": "2e-05", 
        "fix_gamma": "False", 
        "momentum": "0.9", 
        "use_global_stats": "False"
      }, 
      "name": "stage3_unit1_bn1", 
      "inputs": [[147, 0], [148, 0], [149, 0]], 
      "backward_source_id": -1
    }, 
    {
      "op": "Activation", 
      "param": {"act_type": "relu"}, 
      "name": "stage3_unit1_relu1", 
      "inputs": [[150, 0]], 
      "backward_source_id": -1
    }, 
    {
      "op": "null", 
      "param": {}, 
      "name": "stage3_unit1_conv1_weight", 
      "inputs": [], 
      "backward_source_id": -1
    }, 
    {
      "op": "Convolution", 
      "param": {
        "cudnn_tune": "limited_workspace", 
        "dilate": "(1,1)", 
        "kernel": "(1,1)", 
        "no_bias": "True", 
        "num_filter": "256", 
        "num_group": "1", 
        "pad": "(0,0)", 
        "stride": "(1,1)", 
        "workspace": "512"
      }, 
      "name": "stage3_unit1_conv1", 
      "inputs": [[151, 0], [152, 0]], 
      "backward_source_id": -1
    }, 
    {
      "op": "null", 
      "param": {}, 
      "name": "stage3_unit1_bn2_gamma", 
      "inputs": [], 
      "backward_source_id": -1
    }, 
    {
      "op": "null", 
      "param": {}, 
      "name": "stage3_unit1_bn2_beta", 
      "inputs": [], 
      "backward_source_id": -1
    }, 
    {
      "op": "BatchNorm", 
      "param": {
        "eps": "2e-05", 
        "fix_gamma": "False", 
        "momentum": "0.9", 
        "use_global_stats": "False"
      }, 
      "name": "stage3_unit1_bn2", 
      "inputs": [[153, 0], [154, 0], [155, 0]], 
      "backward_source_id": -1
    }, 
    {
      "op": "Activation", 
      "param": {"act_type": "relu"}, 
      "name": "stage3_unit1_relu2", 
      "inputs": [[156, 0]], 
      "backward_source_id": -1
    }, 
    {
      "op": "null", 
      "param": {}, 
      "name": "stage3_unit1_conv2_weight", 
      "inputs": [], 
      "backward_source_id": -1
    }, 
    {
      "op": "Convolution", 
      "param": {
        "cudnn_tune": "limited_workspace", 
        "dilate": "(1,1)", 
        "kernel": "(3,3)", 
        "no_bias": "True", 
        "num_filter": "256", 
        "num_group": "1", 
        "pad": "(1,1)", 
        "stride": "(2,2)", 
        "workspace": "512"
      }, 
      "name": "stage3_unit1_conv2", 
      "inputs": [[157, 0], [158, 0]], 
      "backward_source_id": -1
    }, 
    {
      "op": "null", 
      "param": {}, 
      "name": "stage3_unit1_bn3_gamma", 
      "inputs": [], 
      "backward_source_id": -1
    }, 
    {
      "op": "null", 
      "param": {}, 
      "name": "stage3_unit1_bn3_beta", 
      "inputs": [], 
      "backward_source_id": -1
    }, 
    {
      "op": "BatchNorm", 
      "param": {
        "eps": "2e-05", 
        "fix_gamma": "False", 
        "momentum": "0.9", 
        "use_global_stats": "False"
      }, 
      "name": "stage3_unit1_bn3", 
      "inputs": [[159, 0], [160, 0], [161, 0]], 
      "backward_source_id": -1
    }, 
    {
      "op": "Activation", 
      "param": {"act_type": "relu"}, 
      "name": "stage3_unit1_relu3", 
      "inputs": [[162, 0]], 
      "backward_source_id": -1
    }, 
    {
      "op": "null", 
      "param": {}, 
      "name": "stage3_unit1_conv3_weight", 
      "inputs": [], 
      "backward_source_id": -1
    }, 
    {
      "op": "Convolution", 
      "param": {
        "cudnn_tune": "limited_workspace", 
        "dilate": "(1,1)", 
        "kernel": "(1,1)", 
        "no_bias": "True", 
        "num_filter": "1024", 
        "num_group": "1", 
        "pad": "(0,0)", 
        "stride": "(1,1)", 
        "workspace": "512"
      }, 
      "name": "stage3_unit1_conv3", 
      "inputs": [[163, 0], [164, 0]], 
      "backward_source_id": -1
    }, 
    {
      "op": "null", 
      "param": {}, 
      "name": "stage3_unit1_sc_weight", 
      "inputs": [], 
      "backward_source_id": -1
    }, 
    {
      "op": "Convolution", 
      "param": {
        "cudnn_tune": "limited_workspace", 
        "dilate": "(1,1)", 
        "kernel": "(1,1)", 
        "no_bias": "True", 
        "num_filter": "1024", 
        "num_group": "1", 
        "pad": "(0,0)", 
        "stride": "(2,2)", 
        "workspace": "512"
      }, 
      "name": "stage3_unit1_sc", 
      "inputs": [[151, 0], [166, 0]], 
      "backward_source_id": -1
    }, 
    {
      "op": "_Plus", 
      "param": {}, 
      "name": "_plus7", 
      "inputs": [[165, 0], [167, 0]], 
      "backward_source_id": -1
    }, 
    {
      "op": "null", 
      "param": {}, 
      "name": "stage3_unit2_bn1_gamma", 
      "inputs": [], 
      "backward_source_id": -1
    }, 
    {
      "op": "null", 
      "param": {}, 
      "name": "stage3_unit2_bn1_beta", 
      "inputs": [], 
      "backward_source_id": -1
    }, 
    {
      "op": "BatchNorm", 
      "param": {
        "eps": "2e-05", 
        "fix_gamma": "False", 
        "momentum": "0.9", 
        "use_global_stats": "False"
      }, 
      "name": "stage3_unit2_bn1", 
      "inputs": [[168, 0], [169, 0], [170, 0]], 
      "backward_source_id": -1
    }, 
    {
      "op": "Activation", 
      "param": {"act_type": "relu"}, 
      "name": "stage3_unit2_relu1", 
      "inputs": [[171, 0]], 
      "backward_source_id": -1
    }, 
    {
      "op": "null", 
      "param": {}, 
      "name": "stage3_unit2_conv1_weight", 
      "inputs": [], 
      "backward_source_id": -1
    }, 
    {
      "op": "Convolution", 
      "param": {
        "cudnn_tune": "limited_workspace", 
        "dilate": "(1,1)", 
        "kernel": "(1,1)", 
        "no_bias": "True", 
        "num_filter": "256", 
        "num_group": "1", 
        "pad": "(0,0)", 
        "stride": "(1,1)", 
        "workspace": "512"
      }, 
      "name": "stage3_unit2_conv1", 
      "inputs": [[172, 0], [173, 0]], 
      "backward_source_id": -1
    }, 
    {
      "op": "null", 
      "param": {}, 
      "name": "stage3_unit2_bn2_gamma", 
      "inputs": [], 
      "backward_source_id": -1
    }, 
    {
      "op": "null", 
      "param": {}, 
      "name": "stage3_unit2_bn2_beta", 
      "inputs": [], 
      "backward_source_id": -1
    }, 
    {
      "op": "BatchNorm", 
      "param": {
        "eps": "2e-05", 
        "fix_gamma": "False", 
        "momentum": "0.9", 
        "use_global_stats": "False"
      }, 
      "name": "stage3_unit2_bn2", 
      "inputs": [[174, 0], [175, 0], [176, 0]], 
      "backward_source_id": -1
    }, 
    {
      "op": "Activation", 
      "param": {"act_type": "relu"}, 
      "name": "stage3_unit2_relu2", 
      "inputs": [[177, 0]], 
      "backward_source_id": -1
    }, 
    {
      "op": "null", 
      "param": {}, 
      "name": "stage3_unit2_conv2_weight", 
      "inputs": [], 
      "backward_source_id": -1
    }, 
    {
      "op": "Convolution", 
      "param": {
        "cudnn_tune": "limited_workspace", 
        "dilate": "(1,1)", 
        "kernel": "(3,3)", 
        "no_bias": "True", 
        "num_filter": "256", 
        "num_group": "1", 
        "pad": "(1,1)", 
        "stride": "(1,1)", 
        "workspace": "512"
      }, 
      "name": "stage3_unit2_conv2", 
      "inputs": [[178, 0], [179, 0]], 
      "backward_source_id": -1
    }, 
    {
      "op": "null", 
      "param": {}, 
      "name": "stage3_unit2_bn3_gamma", 
      "inputs": [], 
      "backward_source_id": -1
    }, 
    {
      "op": "null", 
      "param": {}, 
      "name": "stage3_unit2_bn3_beta", 
      "inputs": [], 
      "backward_source_id": -1
    }, 
    {
      "op": "BatchNorm", 
      "param": {
        "eps": "2e-05", 
        "fix_gamma": "False", 
        "momentum": "0.9", 
        "use_global_stats": "False"
      }, 
      "name": "stage3_unit2_bn3", 
      "inputs": [[180, 0], [181, 0], [182, 0]], 
      "backward_source_id": -1
    }, 
    {
      "op": "Activation", 
      "param": {"act_type": "relu"}, 
      "name": "stage3_unit2_relu3", 
      "inputs": [[183, 0]], 
      "backward_source_id": -1
    }, 
    {
      "op": "null", 
      "param": {}, 
      "name": "stage3_unit2_conv3_weight", 
      "inputs": [], 
      "backward_source_id": -1
    }, 
    {
      "op": "Convolution", 
      "param": {
        "cudnn_tune": "limited_workspace", 
        "dilate": "(1,1)", 
        "kernel": "(1,1)", 
        "no_bias": "True", 
        "num_filter": "1024", 
        "num_group": "1", 
        "pad": "(0,0)", 
        "stride": "(1,1)", 
        "workspace": "512"
      }, 
      "name": "stage3_unit2_conv3", 
      "inputs": [[184, 0], [185, 0]], 
      "backward_source_id": -1
    }, 
    {
      "op": "_Plus", 
      "param": {}, 
      "name": "_plus8", 
      "inputs": [[186, 0], [168, 0]], 
      "backward_source_id": -1
    }, 
    {
      "op": "null", 
      "param": {}, 
      "name": "stage3_unit3_bn1_gamma", 
      "inputs": [], 
      "backward_source_id": -1
    }, 
    {
      "op": "null", 
      "param": {}, 
      "name": "stage3_unit3_bn1_beta", 
      "inputs": [], 
      "backward_source_id": -1
    }, 
    {
      "op": "BatchNorm", 
      "param": {
        "eps": "2e-05", 
        "fix_gamma": "False", 
        "momentum": "0.9", 
        "use_global_stats": "False"
      }, 
      "name": "stage3_unit3_bn1", 
      "inputs": [[187, 0], [188, 0], [189, 0]], 
      "backward_source_id": -1
    }, 
    {
      "op": "Activation", 
      "param": {"act_type": "relu"}, 
      "name": "stage3_unit3_relu1", 
      "inputs": [[190, 0]], 
      "backward_source_id": -1
    }, 
    {
      "op": "null", 
      "param": {}, 
      "name": "stage3_unit3_conv1_weight", 
      "inputs": [], 
      "backward_source_id": -1
    }, 
    {
      "op": "Convolution", 
      "param": {
        "cudnn_tune": "limited_workspace", 
        "dilate": "(1,1)", 
        "kernel": "(1,1)", 
        "no_bias": "True", 
        "num_filter": "256", 
        "num_group": "1", 
        "pad": "(0,0)", 
        "stride": "(1,1)", 
        "workspace": "512"
      }, 
      "name": "stage3_unit3_conv1", 
      "inputs": [[191, 0], [192, 0]], 
      "backward_source_id": -1
    }, 
    {
      "op": "null", 
      "param": {}, 
      "name": "stage3_unit3_bn2_gamma", 
      "inputs": [], 
      "backward_source_id": -1
    }, 
    {
      "op": "null", 
      "param": {}, 
      "name": "stage3_unit3_bn2_beta", 
      "inputs": [], 
      "backward_source_id": -1
    }, 
    {
      "op": "BatchNorm", 
      "param": {
        "eps": "2e-05", 
        "fix_gamma": "False", 
        "momentum": "0.9", 
        "use_global_stats": "False"
      }, 
      "name": "stage3_unit3_bn2", 
      "inputs": [[193, 0], [194, 0], [195, 0]], 
      "backward_source_id": -1
    }, 
    {
      "op": "Activation", 
      "param": {"act_type": "relu"}, 
      "name": "stage3_unit3_relu2", 
      "inputs": [[196, 0]], 
      "backward_source_id": -1
    }, 
    {
      "op": "null", 
      "param": {}, 
      "name": "stage3_unit3_conv2_weight", 
      "inputs": [], 
      "backward_source_id": -1
    }, 
    {
      "op": "Convolution", 
      "param": {
        "cudnn_tune": "limited_workspace", 
        "dilate": "(1,1)", 
        "kernel": "(3,3)", 
        "no_bias": "True", 
        "num_filter": "256", 
        "num_group": "1", 
        "pad": "(1,1)", 
        "stride": "(1,1)", 
        "workspace": "512"
      }, 
      "name": "stage3_unit3_conv2", 
      "inputs": [[197, 0], [198, 0]], 
      "backward_source_id": -1
    }, 
    {
      "op": "null", 
      "param": {}, 
      "name": "stage3_unit3_bn3_gamma", 
      "inputs": [], 
      "backward_source_id": -1
    }, 
    {
      "op": "null", 
      "param": {}, 
      "name": "stage3_unit3_bn3_beta", 
      "inputs": [], 
      "backward_source_id": -1
    }, 
    {
      "op": "BatchNorm", 
      "param": {
        "eps": "2e-05", 
        "fix_gamma": "False", 
        "momentum": "0.9", 
        "use_global_stats": "False"
      }, 
      "name": "stage3_unit3_bn3", 
      "inputs": [[199, 0], [200, 0], [201, 0]], 
      "backward_source_id": -1
    }, 
    {
      "op": "Activation", 
      "param": {"act_type": "relu"}, 
      "name": "stage3_unit3_relu3", 
      "inputs": [[202, 0]], 
      "backward_source_id": -1
    }, 
    {
      "op": "null", 
      "param": {}, 
      "name": "stage3_unit3_conv3_weight", 
      "inputs": [], 
      "backward_source_id": -1
    }, 
    {
      "op": "Convolution", 
      "param": {
        "cudnn_tune": "limited_workspace", 
        "dilate": "(1,1)", 
        "kernel": "(1,1)", 
        "no_bias": "True", 
        "num_filter": "1024", 
        "num_group": "1", 
        "pad": "(0,0)", 
        "stride": "(1,1)", 
        "workspace": "512"
      }, 
      "name": "stage3_unit3_conv3", 
      "inputs": [[203, 0], [204, 0]], 
      "backward_source_id": -1
    }, 
    {
      "op": "_Plus", 
      "param": {}, 
      "name": "_plus9", 
      "inputs": [[205, 0], [187, 0]], 
      "backward_source_id": -1
    }, 
    {
      "op": "null", 
      "param": {}, 
      "name": "stage3_unit4_bn1_gamma", 
      "inputs": [], 
      "backward_source_id": -1
    }, 
    {
      "op": "null", 
      "param": {}, 
      "name": "stage3_unit4_bn1_beta", 
      "inputs": [], 
      "backward_source_id": -1
    }, 
    {
      "op": "BatchNorm", 
      "param": {
        "eps": "2e-05", 
        "fix_gamma": "False", 
        "momentum": "0.9", 
        "use_global_stats": "False"
      }, 
      "name": "stage3_unit4_bn1", 
      "inputs": [[206, 0], [207, 0], [208, 0]], 
      "backward_source_id": -1
    }, 
    {
      "op": "Activation", 
      "param": {"act_type": "relu"}, 
      "name": "stage3_unit4_relu1", 
      "inputs": [[209, 0]], 
      "backward_source_id": -1
    }, 
    {
      "op": "null", 
      "param": {}, 
      "name": "stage3_unit4_conv1_weight", 
      "inputs": [], 
      "backward_source_id": -1
    }, 
    {
      "op": "Convolution", 
      "param": {
        "cudnn_tune": "limited_workspace", 
        "dilate": "(1,1)", 
        "kernel": "(1,1)", 
        "no_bias": "True", 
        "num_filter": "256", 
        "num_group": "1", 
        "pad": "(0,0)", 
        "stride": "(1,1)", 
        "workspace": "512"
      }, 
      "name": "stage3_unit4_conv1", 
      "inputs": [[210, 0], [211, 0]], 
      "backward_source_id": -1
    }, 
    {
      "op": "null", 
      "param": {}, 
      "name": "stage3_unit4_bn2_gamma", 
      "inputs": [], 
      "backward_source_id": -1
    }, 
    {
      "op": "null", 
      "param": {}, 
      "name": "stage3_unit4_bn2_beta", 
      "inputs": [], 
      "backward_source_id": -1
    }, 
    {
      "op": "BatchNorm", 
      "param": {
        "eps": "2e-05", 
        "fix_gamma": "False", 
        "momentum": "0.9", 
        "use_global_stats": "False"
      }, 
      "name": "stage3_unit4_bn2", 
      "inputs": [[212, 0], [213, 0], [214, 0]], 
      "backward_source_id": -1
    }, 
    {
      "op": "Activation", 
      "param": {"act_type": "relu"}, 
      "name": "stage3_unit4_relu2", 
      "inputs": [[215, 0]], 
      "backward_source_id": -1
    }, 
    {
      "op": "null", 
      "param": {}, 
      "name": "stage3_unit4_conv2_weight", 
      "inputs": [], 
      "backward_source_id": -1
    }, 
    {
      "op": "Convolution", 
      "param": {
        "cudnn_tune": "limited_workspace", 
        "dilate": "(1,1)", 
        "kernel": "(3,3)", 
        "no_bias": "True", 
        "num_filter": "256", 
        "num_group": "1", 
        "pad": "(1,1)", 
        "stride": "(1,1)", 
        "workspace": "512"
      }, 
      "name": "stage3_unit4_conv2", 
      "inputs": [[216, 0], [217, 0]], 
      "backward_source_id": -1
    }, 
    {
      "op": "null", 
      "param": {}, 
      "name": "stage3_unit4_bn3_gamma", 
      "inputs": [], 
      "backward_source_id": -1
    }, 
    {
      "op": "null", 
      "param": {}, 
      "name": "stage3_unit4_bn3_beta", 
      "inputs": [], 
      "backward_source_id": -1
    }, 
    {
      "op": "BatchNorm", 
      "param": {
        "eps": "2e-05", 
        "fix_gamma": "False", 
        "momentum": "0.9", 
        "use_global_stats": "False"
      }, 
      "name": "stage3_unit4_bn3", 
      "inputs": [[218, 0], [219, 0], [220, 0]], 
      "backward_source_id": -1
    }, 
    {
      "op": "Activation", 
      "param": {"act_type": "relu"}, 
      "name": "stage3_unit4_relu3", 
      "inputs": [[221, 0]], 
      "backward_source_id": -1
    }, 
    {
      "op": "null", 
      "param": {}, 
      "name": "stage3_unit4_conv3_weight", 
      "inputs": [], 
      "backward_source_id": -1
    }, 
    {
      "op": "Convolution", 
      "param": {
        "cudnn_tune": "limited_workspace", 
        "dilate": "(1,1)", 
        "kernel": "(1,1)", 
        "no_bias": "True", 
        "num_filter": "1024", 
        "num_group": "1", 
        "pad": "(0,0)", 
        "stride": "(1,1)", 
        "workspace": "512"
      }, 
      "name": "stage3_unit4_conv3", 
      "inputs": [[222, 0], [223, 0]], 
      "backward_source_id": -1
    }, 
    {
      "op": "_Plus", 
      "param": {}, 
      "name": "_plus10", 
      "inputs": [[224, 0], [206, 0]], 
      "backward_source_id": -1
    }, 
    {
      "op": "null", 
      "param": {}, 
      "name": "stage3_unit5_bn1_gamma", 
      "inputs": [], 
      "backward_source_id": -1
    }, 
    {
      "op": "null", 
      "param": {}, 
      "name": "stage3_unit5_bn1_beta", 
      "inputs": [], 
      "backward_source_id": -1
    }, 
    {
      "op": "BatchNorm", 
      "param": {
        "eps": "2e-05", 
        "fix_gamma": "False", 
        "momentum": "0.9", 
        "use_global_stats": "False"
      }, 
      "name": "stage3_unit5_bn1", 
      "inputs": [[225, 0], [226, 0], [227, 0]], 
      "backward_source_id": -1
    }, 
    {
      "op": "Activation", 
      "param": {"act_type": "relu"}, 
      "name": "stage3_unit5_relu1", 
      "inputs": [[228, 0]], 
      "backward_source_id": -1
    }, 
    {
      "op": "null", 
      "param": {}, 
      "name": "stage3_unit5_conv1_weight", 
      "inputs": [], 
      "backward_source_id": -1
    }, 
    {
      "op": "Convolution", 
      "param": {
        "cudnn_tune": "limited_workspace", 
        "dilate": "(1,1)", 
        "kernel": "(1,1)", 
        "no_bias": "True", 
        "num_filter": "256", 
        "num_group": "1", 
        "pad": "(0,0)", 
        "stride": "(1,1)", 
        "workspace": "512"
      }, 
      "name": "stage3_unit5_conv1", 
      "inputs": [[229, 0], [230, 0]], 
      "backward_source_id": -1
    }, 
    {
      "op": "null", 
      "param": {}, 
      "name": "stage3_unit5_bn2_gamma", 
      "inputs": [], 
      "backward_source_id": -1
    }, 
    {
      "op": "null", 
      "param": {}, 
      "name": "stage3_unit5_bn2_beta", 
      "inputs": [], 
      "backward_source_id": -1
    }, 
    {
      "op": "BatchNorm", 
      "param": {
        "eps": "2e-05", 
        "fix_gamma": "False", 
        "momentum": "0.9", 
        "use_global_stats": "False"
      }, 
      "name": "stage3_unit5_bn2", 
      "inputs": [[231, 0], [232, 0], [233, 0]], 
      "backward_source_id": -1
    }, 
    {
      "op": "Activation", 
      "param": {"act_type": "relu"}, 
      "name": "stage3_unit5_relu2", 
      "inputs": [[234, 0]], 
      "backward_source_id": -1
    }, 
    {
      "op": "null", 
      "param": {}, 
      "name": "stage3_unit5_conv2_weight", 
      "inputs": [], 
      "backward_source_id": -1
    }, 
    {
      "op": "Convolution", 
      "param": {
        "cudnn_tune": "limited_workspace", 
        "dilate": "(1,1)", 
        "kernel": "(3,3)", 
        "no_bias": "True", 
        "num_filter": "256", 
        "num_group": "1", 
        "pad": "(1,1)", 
        "stride": "(1,1)", 
        "workspace": "512"
      }, 
      "name": "stage3_unit5_conv2", 
      "inputs": [[235, 0], [236, 0]], 
      "backward_source_id": -1
    }, 
    {
      "op": "null", 
      "param": {}, 
      "name": "stage3_unit5_bn3_gamma", 
      "inputs": [], 
      "backward_source_id": -1
    }, 
    {
      "op": "null", 
      "param": {}, 
      "name": "stage3_unit5_bn3_beta", 
      "inputs": [], 
      "backward_source_id": -1
    }, 
    {
      "op": "BatchNorm", 
      "param": {
        "eps": "2e-05", 
        "fix_gamma": "False", 
        "momentum": "0.9", 
        "use_global_stats": "False"
      }, 
      "name": "stage3_unit5_bn3", 
      "inputs": [[237, 0], [238, 0], [239, 0]], 
      "backward_source_id": -1
    }, 
    {
      "op": "Activation", 
      "param": {"act_type": "relu"}, 
      "name": "stage3_unit5_relu3", 
      "inputs": [[240, 0]], 
      "backward_source_id": -1
    }, 
    {
      "op": "null", 
      "param": {}, 
      "name": "stage3_unit5_conv3_weight", 
      "inputs": [], 
      "backward_source_id": -1
    }, 
    {
      "op": "Convolution", 
      "param": {
        "cudnn_tune": "limited_workspace", 
        "dilate": "(1,1)", 
        "kernel": "(1,1)", 
        "no_bias": "True", 
        "num_filter": "1024", 
        "num_group": "1", 
        "pad": "(0,0)", 
        "stride": "(1,1)", 
        "workspace": "512"
      }, 
      "name": "stage3_unit5_conv3", 
      "inputs": [[241, 0], [242, 0]], 
      "backward_source_id": -1
    }, 
    {
      "op": "_Plus", 
      "param": {}, 
      "name": "_plus11", 
      "inputs": [[243, 0], [225, 0]], 
      "backward_source_id": -1
    }, 
    {
      "op": "null", 
      "param": {}, 
      "name": "stage3_unit6_bn1_gamma", 
      "inputs": [], 
      "backward_source_id": -1
    }, 
    {
      "op": "null", 
      "param": {}, 
      "name": "stage3_unit6_bn1_beta", 
      "inputs": [], 
      "backward_source_id": -1
    }, 
    {
      "op": "BatchNorm", 
      "param": {
        "eps": "2e-05", 
        "fix_gamma": "False", 
        "momentum": "0.9", 
        "use_global_stats": "False"
      }, 
      "name": "stage3_unit6_bn1", 
      "inputs": [[244, 0], [245, 0], [246, 0]], 
      "backward_source_id": -1
    }, 
    {
      "op": "Activation", 
      "param": {"act_type": "relu"}, 
      "name": "stage3_unit6_relu1", 
      "inputs": [[247, 0]], 
      "backward_source_id": -1
    }, 
    {
      "op": "null", 
      "param": {}, 
      "name": "stage3_unit6_conv1_weight", 
      "inputs": [], 
      "backward_source_id": -1
    }, 
    {
      "op": "Convolution", 
      "param": {
        "cudnn_tune": "limited_workspace", 
        "dilate": "(1,1)", 
        "kernel": "(1,1)", 
        "no_bias": "True", 
        "num_filter": "256", 
        "num_group": "1", 
        "pad": "(0,0)", 
        "stride": "(1,1)", 
        "workspace": "512"
      }, 
      "name": "stage3_unit6_conv1", 
      "inputs": [[248, 0], [249, 0]], 
      "backward_source_id": -1
    }, 
    {
      "op": "null", 
      "param": {}, 
      "name": "stage3_unit6_bn2_gamma", 
      "inputs": [], 
      "backward_source_id": -1
    }, 
    {
      "op": "null", 
      "param": {}, 
      "name": "stage3_unit6_bn2_beta", 
      "inputs": [], 
      "backward_source_id": -1
    }, 
    {
      "op": "BatchNorm", 
      "param": {
        "eps": "2e-05", 
        "fix_gamma": "False", 
        "momentum": "0.9", 
        "use_global_stats": "False"
      }, 
      "name": "stage3_unit6_bn2", 
      "inputs": [[250, 0], [251, 0], [252, 0]], 
      "backward_source_id": -1
    }, 
    {
      "op": "Activation", 
      "param": {"act_type": "relu"}, 
      "name": "stage3_unit6_relu2", 
      "inputs": [[253, 0]], 
      "backward_source_id": -1
    }, 
    {
      "op": "null", 
      "param": {}, 
      "name": "stage3_unit6_conv2_weight", 
      "inputs": [], 
      "backward_source_id": -1
    }, 
    {
      "op": "Convolution", 
      "param": {
        "cudnn_tune": "limited_workspace", 
        "dilate": "(1,1)", 
        "kernel": "(3,3)", 
        "no_bias": "True", 
        "num_filter": "256", 
        "num_group": "1", 
        "pad": "(1,1)", 
        "stride": "(1,1)", 
        "workspace": "512"
      }, 
      "name": "stage3_unit6_conv2", 
      "inputs": [[254, 0], [255, 0]], 
      "backward_source_id": -1
    }, 
    {
      "op": "null", 
      "param": {}, 
      "name": "stage3_unit6_bn3_gamma", 
      "inputs": [], 
      "backward_source_id": -1
    }, 
    {
      "op": "null", 
      "param": {}, 
      "name": "stage3_unit6_bn3_beta", 
      "inputs": [], 
      "backward_source_id": -1
    }, 
    {
      "op": "BatchNorm", 
      "param": {
        "eps": "2e-05", 
        "fix_gamma": "False", 
        "momentum": "0.9", 
        "use_global_stats": "False"
      }, 
      "name": "stage3_unit6_bn3", 
      "inputs": [[256, 0], [257, 0], [258, 0]], 
      "backward_source_id": -1
    }, 
    {
      "op": "Activation", 
      "param": {"act_type": "relu"}, 
      "name": "stage3_unit6_relu3", 
      "inputs": [[259, 0]], 
      "backward_source_id": -1
    }, 
    {
      "op": "null", 
      "param": {}, 
      "name": "stage3_unit6_conv3_weight", 
      "inputs": [], 
      "backward_source_id": -1
    }, 
    {
      "op": "Convolution", 
      "param": {
        "cudnn_tune": "limited_workspace", 
        "dilate": "(1,1)", 
        "kernel": "(1,1)", 
        "no_bias": "True", 
        "num_filter": "1024", 
        "num_group": "1", 
        "pad": "(0,0)", 
        "stride": "(1,1)", 
        "workspace": "512"
      }, 
      "name": "stage3_unit6_conv3", 
      "inputs": [[260, 0], [261, 0]], 
      "backward_source_id": -1
    }, 
    {
      "op": "_Plus", 
      "param": {}, 
      "name": "_plus12", 
      "inputs": [[262, 0], [244, 0]], 
      "backward_source_id": -1
    }, 
    {
      "op": "null", 
      "param": {}, 
      "name": "stage4_unit1_bn1_gamma", 
      "inputs": [], 
      "backward_source_id": -1
    }, 
    {
      "op": "null", 
      "param": {}, 
      "name": "stage4_unit1_bn1_beta", 
      "inputs": [], 
      "backward_source_id": -1
    }, 
    {
      "op": "BatchNorm", 
      "param": {
        "eps": "2e-05", 
        "fix_gamma": "False", 
        "momentum": "0.9", 
        "use_global_stats": "False"
      }, 
      "name": "stage4_unit1_bn1", 
      "inputs": [[263, 0], [264, 0], [265, 0]], 
      "backward_source_id": -1
    }, 
    {
      "op": "Activation", 
      "param": {"act_type": "relu"}, 
      "name": "stage4_unit1_relu1", 
      "inputs": [[266, 0]], 
      "backward_source_id": -1
    }, 
    {
      "op": "null", 
      "param": {}, 
      "name": "stage4_unit1_conv1_weight", 
      "inputs": [], 
      "backward_source_id": -1
    }, 
    {
      "op": "Convolution", 
      "param": {
        "cudnn_tune": "limited_workspace", 
        "dilate": "(1,1)", 
        "kernel": "(1,1)", 
        "no_bias": "True", 
        "num_filter": "512", 
        "num_group": "1", 
        "pad": "(0,0)", 
        "stride": "(1,1)", 
        "workspace": "512"
      }, 
      "name": "stage4_unit1_conv1", 
      "inputs": [[267, 0], [268, 0]], 
      "backward_source_id": -1
    }, 
    {
      "op": "null", 
      "param": {}, 
      "name": "stage4_unit1_bn2_gamma", 
      "inputs": [], 
      "backward_source_id": -1
    }, 
    {
      "op": "null", 
      "param": {}, 
      "name": "stage4_unit1_bn2_beta", 
      "inputs": [], 
      "backward_source_id": -1
    }, 
    {
      "op": "BatchNorm", 
      "param": {
        "eps": "2e-05", 
        "fix_gamma": "False", 
        "momentum": "0.9", 
        "use_global_stats": "False"
      }, 
      "name": "stage4_unit1_bn2", 
      "inputs": [[269, 0], [270, 0], [271, 0]], 
      "backward_source_id": -1
    }, 
    {
      "op": "Activation", 
      "param": {"act_type": "relu"}, 
      "name": "stage4_unit1_relu2", 
      "inputs": [[272, 0]], 
      "backward_source_id": -1
    }, 
    {
      "op": "null", 
      "param": {}, 
      "name": "stage4_unit1_conv2_weight", 
      "inputs": [], 
      "backward_source_id": -1
    }, 
    {
      "op": "Convolution", 
      "param": {
        "cudnn_tune": "limited_workspace", 
        "dilate": "(1,1)", 
        "kernel": "(3,3)", 
        "no_bias": "True", 
        "num_filter": "512", 
        "num_group": "1", 
        "pad": "(1,1)", 
        "stride": "(2,2)", 
        "workspace": "512"
      }, 
      "name": "stage4_unit1_conv2", 
      "inputs": [[273, 0], [274, 0]], 
      "backward_source_id": -1
    }, 
    {
      "op": "null", 
      "param": {}, 
      "name": "stage4_unit1_bn3_gamma", 
      "inputs": [], 
      "backward_source_id": -1
    }, 
    {
      "op": "null", 
      "param": {}, 
      "name": "stage4_unit1_bn3_beta", 
      "inputs": [], 
      "backward_source_id": -1
    }, 
    {
      "op": "BatchNorm", 
      "param": {
        "eps": "2e-05", 
        "fix_gamma": "False", 
        "momentum": "0.9", 
        "use_global_stats": "False"
      }, 
      "name": "stage4_unit1_bn3", 
      "inputs": [[275, 0], [276, 0], [277, 0]], 
      "backward_source_id": -1
    }, 
    {
      "op": "Activation", 
      "param": {"act_type": "relu"}, 
      "name": "stage4_unit1_relu3", 
      "inputs": [[278, 0]], 
      "backward_source_id": -1
    }, 
    {
      "op": "null", 
      "param": {}, 
      "name": "stage4_unit1_conv3_weight", 
      "inputs": [], 
      "backward_source_id": -1
    }, 
    {
      "op": "Convolution", 
      "param": {
        "cudnn_tune": "limited_workspace", 
        "dilate": "(1,1)", 
        "kernel": "(1,1)", 
        "no_bias": "True", 
        "num_filter": "2048", 
        "num_group": "1", 
        "pad": "(0,0)", 
        "stride": "(1,1)", 
        "workspace": "512"
      }, 
      "name": "stage4_unit1_conv3", 
      "inputs": [[279, 0], [280, 0]], 
      "backward_source_id": -1
    }, 
    {
      "op": "null", 
      "param": {}, 
      "name": "stage4_unit1_sc_weight", 
      "inputs": [], 
      "backward_source_id": -1
    }, 
    {
      "op": "Convolution", 
      "param": {
        "cudnn_tune": "limited_workspace", 
        "dilate": "(1,1)", 
        "kernel": "(1,1)", 
        "no_bias": "True", 
        "num_filter": "2048", 
        "num_group": "1", 
        "pad": "(0,0)", 
        "stride": "(2,2)", 
        "workspace": "512"
      }, 
      "name": "stage4_unit1_sc", 
      "inputs": [[267, 0], [282, 0]], 
      "backward_source_id": -1
    }, 
    {
      "op": "_Plus", 
      "param": {}, 
      "name": "_plus13", 
      "inputs": [[281, 0], [283, 0]], 
      "backward_source_id": -1
    }, 
    {
      "op": "null", 
      "param": {}, 
      "name": "stage4_unit2_bn1_gamma", 
      "inputs": [], 
      "backward_source_id": -1
    }, 
    {
      "op": "null", 
      "param": {}, 
      "name": "stage4_unit2_bn1_beta", 
      "inputs": [], 
      "backward_source_id": -1
    }, 
    {
      "op": "BatchNorm", 
      "param": {
        "eps": "2e-05", 
        "fix_gamma": "False", 
        "momentum": "0.9", 
        "use_global_stats": "False"
      }, 
      "name": "stage4_unit2_bn1", 
      "inputs": [[284, 0], [285, 0], [286, 0]], 
      "backward_source_id": -1
    }, 
    {
      "op": "Activation", 
      "param": {"act_type": "relu"}, 
      "name": "stage4_unit2_relu1", 
      "inputs": [[287, 0]], 
      "backward_source_id": -1
    }, 
    {
      "op": "null", 
      "param": {}, 
      "name": "stage4_unit2_conv1_weight", 
      "inputs": [], 
      "backward_source_id": -1
    }, 
    {
      "op": "Convolution", 
      "param": {
        "cudnn_tune": "limited_workspace", 
        "dilate": "(1,1)", 
        "kernel": "(1,1)", 
        "no_bias": "True", 
        "num_filter": "512", 
        "num_group": "1", 
        "pad": "(0,0)", 
        "stride": "(1,1)", 
        "workspace": "512"
      }, 
      "name": "stage4_unit2_conv1", 
      "inputs": [[288, 0], [289, 0]], 
      "backward_source_id": -1
    }, 
    {
      "op": "null", 
      "param": {}, 
      "name": "stage4_unit2_bn2_gamma", 
      "inputs": [], 
      "backward_source_id": -1
    }, 
    {
      "op": "null", 
      "param": {}, 
      "name": "stage4_unit2_bn2_beta", 
      "inputs": [], 
      "backward_source_id": -1
    }, 
    {
      "op": "BatchNorm", 
      "param": {
        "eps": "2e-05", 
        "fix_gamma": "False", 
        "momentum": "0.9", 
        "use_global_stats": "False"
      }, 
      "name": "stage4_unit2_bn2", 
      "inputs": [[290, 0], [291, 0], [292, 0]], 
      "backward_source_id": -1
    }, 
    {
      "op": "Activation", 
      "param": {"act_type": "relu"}, 
      "name": "stage4_unit2_relu2", 
      "inputs": [[293, 0]], 
      "backward_source_id": -1
    }, 
    {
      "op": "null", 
      "param": {}, 
      "name": "stage4_unit2_conv2_weight", 
      "inputs": [], 
      "backward_source_id": -1
    }, 
    {
      "op": "Convolution", 
      "param": {
        "cudnn_tune": "limited_workspace", 
        "dilate": "(1,1)", 
        "kernel": "(3,3)", 
        "no_bias": "True", 
        "num_filter": "512", 
        "num_group": "1", 
        "pad": "(1,1)", 
        "stride": "(1,1)", 
        "workspace": "512"
      }, 
      "name": "stage4_unit2_conv2", 
      "inputs": [[294, 0], [295, 0]], 
      "backward_source_id": -1
    }, 
    {
      "op": "null", 
      "param": {}, 
      "name": "stage4_unit2_bn3_gamma", 
      "inputs": [], 
      "backward_source_id": -1
    }, 
    {
      "op": "null", 
      "param": {}, 
      "name": "stage4_unit2_bn3_beta", 
      "inputs": [], 
      "backward_source_id": -1
    }, 
    {
      "op": "BatchNorm", 
      "param": {
        "eps": "2e-05", 
        "fix_gamma": "False", 
        "momentum": "0.9", 
        "use_global_stats": "False"
      }, 
      "name": "stage4_unit2_bn3", 
      "inputs": [[296, 0], [297, 0], [298, 0]], 
      "backward_source_id": -1
    }, 
    {
      "op": "Activation", 
      "param": {"act_type": "relu"}, 
      "name": "stage4_unit2_relu3", 
      "inputs": [[299, 0]], 
      "backward_source_id": -1
    }, 
    {
      "op": "null", 
      "param": {}, 
      "name": "stage4_unit2_conv3_weight", 
      "inputs": [], 
      "backward_source_id": -1
    }, 
    {
      "op": "Convolution", 
      "param": {
        "cudnn_tune": "limited_workspace", 
        "dilate": "(1,1)", 
        "kernel": "(1,1)", 
        "no_bias": "True", 
        "num_filter": "2048", 
        "num_group": "1", 
        "pad": "(0,0)", 
        "stride": "(1,1)", 
        "workspace": "512"
      }, 
      "name": "stage4_unit2_conv3", 
      "inputs": [[300, 0], [301, 0]], 
      "backward_source_id": -1
    }, 
    {
      "op": "_Plus", 
      "param": {}, 
      "name": "_plus14", 
      "inputs": [[302, 0], [284, 0]], 
      "backward_source_id": -1
    }, 
    {
      "op": "null", 
      "param": {}, 
      "name": "stage4_unit3_bn1_gamma", 
      "inputs": [], 
      "backward_source_id": -1
    }, 
    {
      "op": "null", 
      "param": {}, 
      "name": "stage4_unit3_bn1_beta", 
      "inputs": [], 
      "backward_source_id": -1
    }, 
    {
      "op": "BatchNorm", 
      "param": {
        "eps": "2e-05", 
        "fix_gamma": "False", 
        "momentum": "0.9", 
        "use_global_stats": "False"
      }, 
      "name": "stage4_unit3_bn1", 
      "inputs": [[303, 0], [304, 0], [305, 0]], 
      "backward_source_id": -1
    }, 
    {
      "op": "Activation", 
      "param": {"act_type": "relu"}, 
      "name": "stage4_unit3_relu1", 
      "inputs": [[306, 0]], 
      "backward_source_id": -1
    }, 
    {
      "op": "null", 
      "param": {}, 
      "name": "stage4_unit3_conv1_weight", 
      "inputs": [], 
      "backward_source_id": -1
    }, 
    {
      "op": "Convolution", 
      "param": {
        "cudnn_tune": "limited_workspace", 
        "dilate": "(1,1)", 
        "kernel": "(1,1)", 
        "no_bias": "True", 
        "num_filter": "512", 
        "num_group": "1", 
        "pad": "(0,0)", 
        "stride": "(1,1)", 
        "workspace": "512"
      }, 
      "name": "stage4_unit3_conv1", 
      "inputs": [[307, 0], [308, 0]], 
      "backward_source_id": -1
    }, 
    {
      "op": "null", 
      "param": {}, 
      "name": "stage4_unit3_bn2_gamma", 
      "inputs": [], 
      "backward_source_id": -1
    }, 
    {
      "op": "null", 
      "param": {}, 
      "name": "stage4_unit3_bn2_beta", 
      "inputs": [], 
      "backward_source_id": -1
    }, 
    {
      "op": "BatchNorm", 
      "param": {
        "eps": "2e-05", 
        "fix_gamma": "False", 
        "momentum": "0.9", 
        "use_global_stats": "False"
      }, 
      "name": "stage4_unit3_bn2", 
      "inputs": [[309, 0], [310, 0], [311, 0]], 
      "backward_source_id": -1
    }, 
    {
      "op": "Activation", 
      "param": {"act_type": "relu"}, 
      "name": "stage4_unit3_relu2", 
      "inputs": [[312, 0]], 
      "backward_source_id": -1
    }, 
    {
      "op": "null", 
      "param": {}, 
      "name": "stage4_unit3_conv2_weight", 
      "inputs": [], 
      "backward_source_id": -1
    }, 
    {
      "op": "Convolution", 
      "param": {
        "cudnn_tune": "limited_workspace", 
        "dilate": "(1,1)", 
        "kernel": "(3,3)", 
        "no_bias": "True", 
        "num_filter": "512", 
        "num_group": "1", 
        "pad": "(1,1)", 
        "stride": "(1,1)", 
        "workspace": "512"
      }, 
      "name": "stage4_unit3_conv2", 
      "inputs": [[313, 0], [314, 0]], 
      "backward_source_id": -1
    }, 
    {
      "op": "null", 
      "param": {}, 
      "name": "stage4_unit3_bn3_gamma", 
      "inputs": [], 
      "backward_source_id": -1
    }, 
    {
      "op": "null", 
      "param": {}, 
      "name": "stage4_unit3_bn3_beta", 
      "inputs": [], 
      "backward_source_id": -1
    }, 
    {
      "op": "BatchNorm", 
      "param": {
        "eps": "2e-05", 
        "fix_gamma": "False", 
        "momentum": "0.9", 
        "use_global_stats": "False"
      }, 
      "name": "stage4_unit3_bn3", 
      "inputs": [[315, 0], [316, 0], [317, 0]], 
      "backward_source_id": -1
    }, 
    {
      "op": "Activation", 
      "param": {"act_type": "relu"}, 
      "name": "stage4_unit3_relu3", 
      "inputs": [[318, 0]], 
      "backward_source_id": -1
    }, 
    {
      "op": "null", 
      "param": {}, 
      "name": "stage4_unit3_conv3_weight", 
      "inputs": [], 
      "backward_source_id": -1
    }, 
    {
      "op": "Convolution", 
      "param": {
        "cudnn_tune": "limited_workspace", 
        "dilate": "(1,1)", 
        "kernel": "(1,1)", 
        "no_bias": "True", 
        "num_filter": "2048", 
        "num_group": "1", 
        "pad": "(0,0)", 
        "stride": "(1,1)", 
        "workspace": "512"
      }, 
      "name": "stage4_unit3_conv3", 
      "inputs": [[319, 0], [320, 0]], 
      "backward_source_id": -1
    }, 
    {
      "op": "_Plus", 
      "param": {}, 
      "name": "_plus15", 
      "inputs": [[321, 0], [303, 0]], 
      "backward_source_id": -1
    }, 
    {
      "op": "null", 
      "param": {}, 
      "name": "bn1_gamma", 
      "inputs": [], 
      "backward_source_id": -1
    }, 
    {
      "op": "null", 
      "param": {}, 
      "name": "bn1_beta", 
      "inputs": [], 
      "backward_source_id": -1
    }, 
    {
      "op": "BatchNorm", 
      "param": {
        "eps": "2e-05", 
        "fix_gamma": "False", 
        "momentum": "0.9", 
        "use_global_stats": "False"
      }, 
      "name": "bn1", 
      "inputs": [[322, 0], [323, 0], [324, 0]], 
      "backward_source_id": -1
    }, 
    {
      "op": "Activation", 
      "param": {"act_type": "relu"}, 
      "name": "relu1", 
      "inputs": [[325, 0]], 
      "backward_source_id": -1
    }, 
    {
      "op": "Pooling", 
      "param": {
        "global_pool": "True", 
        "kernel": "(7,7)", 
        "pad": "(0,0)", 
        "pool_type": "avg", 
        "stride": "(1,1)"
      }, 
      "name": "pool1", 
      "inputs": [[326, 0]], 
      "backward_source_id": -1
    }, 
    {
      "op": "Flatten", 
      "param": {}, 
      "name": "flatten0", 
      "inputs": [[327, 0]], 
      "backward_source_id": -1
    }, 
    {
      "op": "null", 
      "param": {}, 
      "name": "fc1_weight", 
      "inputs": [], 
      "backward_source_id": -1
    }, 
    {
      "op": "null", 
      "param": {}, 
      "name": "fc1_bias", 
      "inputs": [], 
      "backward_source_id": -1
    }, 
    {
      "op": "FullyConnected", 
      "param": {
        "no_bias": "False", 
        "num_hidden": "1000"
      }, 
      "name": "fc1", 
      "inputs": [[328, 0], [329, 0], [330, 0]], 
      "backward_source_id": -1
    }, 
    {
      "op": "null", 
      "param": {}, 
      "name": "softmax_label", 
      "inputs": [], 
      "backward_source_id": -1
    }, 
    {
      "op": "SoftmaxOutput", 
      "param": {
        "grad_scale": "1", 
        "ignore_label": "-1", 
        "multi_output": "False", 
        "normalization": "null", 
        "use_ignore": "False"
      }, 
      "name": "softmax", 
      "inputs": [[331, 0], [332, 0]], 
      "backward_source_id": -1
    }
  ], 
  "arg_nodes": [
    0, 
    1, 
    2, 
    4, 
    6, 
    7, 
    11, 
    12, 
    15, 
    17, 
    18, 
    21, 
    23, 
    24, 
    27, 
    29, 
    32, 
    33, 
    36, 
    38, 
    39, 
    42, 
    44, 
    45, 
    48, 
    51, 
    52, 
    55, 
    57, 
    58, 
    61, 
    63, 
    64, 
    67, 
    70, 
    71, 
    74, 
    76, 
    77, 
    80, 
    82, 
    83, 
    86, 
    88, 
    91, 
    92, 
    95, 
    97, 
    98, 
    101, 
    103, 
    104, 
    107, 
    110, 
    111, 
    114, 
    116, 
    117, 
    120, 
    122, 
    123, 
    126, 
    129, 
    130, 
    133, 
    135, 
    136, 
    139, 
    141, 
    142, 
    145, 
    148, 
    149, 
    152, 
    154, 
    155, 
    158, 
    160, 
    161, 
    164, 
    166, 
    169, 
    170, 
    173, 
    175, 
    176, 
    179, 
    181, 
    182, 
    185, 
    188, 
    189, 
    192, 
    194, 
    195, 
    198, 
    200, 
    201, 
    204, 
    207, 
    208, 
    211, 
    213, 
    214, 
    217, 
    219, 
    220, 
    223, 
    226, 
    227, 
    230, 
    232, 
    233, 
    236, 
    238, 
    239, 
    242, 
    245, 
    246, 
    249, 
    251, 
    252, 
    255, 
    257, 
    258, 
    261, 
    264, 
    265, 
    268, 
    270, 
    271, 
    274, 
    276, 
    277, 
    280, 
    282, 
    285, 
    286, 
    289, 
    291, 
    292, 
    295, 
    297, 
    298, 
    301, 
    304, 
    305, 
    308, 
    310, 
    311, 
    314, 
    316, 
    317, 
    320, 
    323, 
    324, 
    329, 
    330, 
    332
  ], 
  "heads": [[333, 0]]
}