{
  "nodes": [
    {
      "op": "null", 
      "param": {}, 
      "name": "data", 
      "inputs": [], 
      "backward_source_id": -1
    }, 
    {
      "op": "null", 
      "param": {}, 
      "name": "bn_data_gamma", 
      "inputs": [], 
      "backward_source_id": -1
    }, 
    {
      "op": "null", 
      "param": {}, 
      "name": "bn_data_beta", 
      "inputs": [], 
      "backward_source_id": -1
    }, 
    {
      "op": "BatchNorm", 
      "param": {
        "eps": "2e-05", 
        "fix_gamma": "True", 
        "momentum": "0.9", 
        "use_global_stats": "False"
      }, 
      "name": "bn_data", 
      "inputs": [[0, 0], [1, 0], [2, 0]], 
      "backward_source_id": -1
    }, 
    {
      "op": "null", 
      "param": {}, 
      "name": "conv0_weight", 
      "inputs": [], 
      "backward_source_id": -1
    }, 
    {
      "op": "Convolution", 
      "param": {
        "cudnn_off": "False", 
        "cudnn_tune": "limited_workspace", 
        "dilate": "(1,1)", 
        "kernel": "(7,7)", 
        "no_bias": "True", 
        "num_filter": "64", 
        "num_group": "1", 
        "pad": "(3,3)", 
        "stride": "(2,2)", 
        "workspace": "512"
      }, 
      "name": "conv0", 
      "inputs": [[3, 0], [4, 0]], 
      "backward_source_id": -1
    }, 
    {
      "op": "null", 
      "param": {}, 
      "name": "bn0_gamma", 
      "inputs": [], 
      "backward_source_id": -1
    }, 
    {
      "op": "null", 
      "param": {}, 
      "name": "bn0_beta", 
      "inputs": [], 
      "backward_source_id": -1
    }, 
    {
      "op": "BatchNorm", 
      "param": {
        "eps": "2e-05", 
        "fix_gamma": "False", 
        "momentum": "0.9", 
        "use_global_stats": "False"
      }, 
      "name": "bn0", 
      "inputs": [[5, 0], [6, 0], [7, 0]], 
      "backward_source_id": -1
    }, 
    {
      "op": "Activation", 
      "param": {"act_type": "relu"}, 
      "name": "relu0", 
      "inputs": [[8, 0]], 
      "backward_source_id": -1
    }, 
    {
      "op": "Pooling", 
      "param": {
        "global_pool": "False", 
        "kernel": "(3,3)", 
        "pad": "(1,1)", 
        "pool_type": "max", 
        "pooling_convention": "valid", 
        "stride": "(2,2)"
      }, 
      "name": "pooling0", 
      "inputs": [[9, 0]], 
      "backward_source_id": -1
    }, 
    {
      "op": "null", 
      "param": {}, 
      "name": "stage1_unit1_bn1_gamma", 
      "inputs": [], 
      "backward_source_id": -1
    }, 
    {
      "op": "null", 
      "param": {}, 
      "name": "stage1_unit1_bn1_beta", 
      "inputs": [], 
      "backward_source_id": -1
    }, 
    {
      "op": "BatchNorm", 
      "param": {
        "eps": "2e-05", 
        "fix_gamma": "False", 
        "momentum": "0.9", 
        "use_global_stats": "False"
      }, 
      "name": "stage1_unit1_bn1", 
      "inputs": [[10, 0], [11, 0], [12, 0]], 
      "backward_source_id": -1
    }, 
    {
      "op": "Activation", 
      "param": {"act_type": "relu"}, 
      "name": "stage1_unit1_relu1", 
      "inputs": [[13, 0]], 
      "backward_source_id": -1
    }, 
    {
      "op": "null", 
      "param": {}, 
      "name": "stage1_unit1_conv1_weight", 
      "inputs": [], 
      "backward_source_id": -1
    }, 
    {
      "op": "Convolution", 
      "param": {
        "cudnn_off": "False", 
        "cudnn_tune": "limited_workspace", 
        "dilate": "(1,1)", 
        "kernel": "(1,1)", 
        "no_bias": "True", 
        "num_filter": "64", 
        "num_group": "1", 
        "pad": "(0,0)", 
        "stride": "(1,1)", 
        "workspace": "512"
      }, 
      "name": "stage1_unit1_conv1", 
      "inputs": [[14, 0], [15, 0]], 
      "backward_source_id": -1
    }, 
    {
      "op": "null", 
      "param": {}, 
      "name": "stage1_unit1_bn2_gamma", 
      "inputs": [], 
      "backward_source_id": -1
    }, 
    {
      "op": "null", 
      "param": {}, 
      "name": "stage1_unit1_bn2_beta", 
      "inputs": [], 
      "backward_source_id": -1
    }, 
    {
      "op": "BatchNorm", 
      "param": {
        "eps": "2e-05", 
        "fix_gamma": "False", 
        "momentum": "0.9", 
        "use_global_stats": "False"
      }, 
      "name": "stage1_unit1_bn2", 
      "inputs": [[16, 0], [17, 0], [18, 0]], 
      "backward_source_id": -1
    }, 
    {
      "op": "Activation", 
      "param": {"act_type": "relu"}, 
      "name": "stage1_unit1_relu2", 
      "inputs": [[19, 0]], 
      "backward_source_id": -1
    }, 
    {
      "op": "null", 
      "param": {}, 
      "name": "stage1_unit1_conv2_weight", 
      "inputs": [], 
      "backward_source_id": -1
    }, 
    {
      "op": "Convolution", 
      "param": {
        "cudnn_off": "False", 
        "cudnn_tune": "limited_workspace", 
        "dilate": "(1,1)", 
        "kernel": "(3,3)", 
        "no_bias": "True", 
        "num_filter": "64", 
        "num_group": "1", 
        "pad": "(1,1)", 
        "stride": "(1,1)", 
        "workspace": "512"
      }, 
      "name": "stage1_unit1_conv2", 
      "inputs": [[20, 0], [21, 0]], 
      "backward_source_id": -1
    }, 
    {
      "op": "null", 
      "param": {}, 
      "name": "stage1_unit1_bn3_gamma", 
      "inputs": [], 
      "backward_source_id": -1
    }, 
    {
      "op": "null", 
      "param": {}, 
      "name": "stage1_unit1_bn3_beta", 
      "inputs": [], 
      "backward_source_id": -1
    }, 
    {
      "op": "BatchNorm", 
      "param": {
        "eps": "2e-05", 
        "fix_gamma": "False", 
        "momentum": "0.9", 
        "use_global_stats": "False"
      }, 
      "name": "stage1_unit1_bn3", 
      "inputs": [[22, 0], [23, 0], [24, 0]], 
      "backward_source_id": -1
    }, 
    {
      "op": "Activation", 
      "param": {"act_type": "relu"}, 
      "name": "stage1_unit1_relu3", 
      "inputs": [[25, 0]], 
      "backward_source_id": -1
    }, 
    {
      "op": "null", 
      "param": {}, 
      "name": "stage1_unit1_conv3_weight", 
      "inputs": [], 
      "backward_source_id": -1
    }, 
    {
      "op": "Convolution", 
      "param": {
        "cudnn_off": "False", 
        "cudnn_tune": "limited_workspace", 
        "dilate": "(1,1)", 
        "kernel": "(1,1)", 
        "no_bias": "True", 
        "num_filter": "256", 
        "num_group": "1", 
        "pad": "(0,0)", 
        "stride": "(1,1)", 
        "workspace": "512"
      }, 
      "name": "stage1_unit1_conv3", 
      "inputs": [[26, 0], [27, 0]], 
      "backward_source_id": -1
    }, 
    {
      "op": "null", 
      "param": {}, 
      "name": "stage1_unit1_sc_weight", 
      "inputs": [], 
      "backward_source_id": -1
    }, 
    {
      "op": "Convolution", 
      "param": {
        "cudnn_off": "False", 
        "cudnn_tune": "limited_workspace", 
        "dilate": "(1,1)", 
        "kernel": "(1,1)", 
        "no_bias": "True", 
        "num_filter": "256", 
        "num_group": "1", 
        "pad": "(0,0)", 
        "stride": "(1,1)", 
        "workspace": "512"
      }, 
      "name": "stage1_unit1_sc", 
      "inputs": [[14, 0], [29, 0]], 
      "backward_source_id": -1
    }, 
    {
      "op": "_Plus", 
      "param": {}, 
      "name": "_plus0", 
      "inputs": [[28, 0], [30, 0]], 
      "backward_source_id": -1
    }, 
    {
      "op": "null", 
      "param": {}, 
      "name": "stage1_unit2_bn1_gamma", 
      "inputs": [], 
      "backward_source_id": -1
    }, 
    {
      "op": "null", 
      "param": {}, 
      "name": "stage1_unit2_bn1_beta", 
      "inputs": [], 
      "backward_source_id": -1
    }, 
    {
      "op": "BatchNorm", 
      "param": {
        "eps": "2e-05", 
        "fix_gamma": "False", 
        "momentum": "0.9", 
        "use_global_stats": "False"
      }, 
      "name": "stage1_unit2_bn1", 
      "inputs": [[31, 0], [32, 0], [33, 0]], 
      "backward_source_id": -1
    }, 
    {
      "op": "Activation", 
      "param": {"act_type": "relu"}, 
      "name": "stage1_unit2_relu1", 
      "inputs": [[34, 0]], 
      "backward_source_id": -1
    }, 
    {
      "op": "null", 
      "param": {}, 
      "name": "stage1_unit2_conv1_weight", 
      "inputs": [], 
      "backward_source_id": -1
    }, 
    {
      "op": "Convolution", 
      "param": {
        "cudnn_off": "False", 
        "cudnn_tune": "limited_workspace", 
        "dilate": "(1,1)", 
        "kernel": "(1,1)", 
        "no_bias": "True", 
        "num_filter": "64", 
        "num_group": "1", 
        "pad": "(0,0)", 
        "stride": "(1,1)", 
        "workspace": "512"
      }, 
      "name": "stage1_unit2_conv1", 
      "inputs": [[35, 0], [36, 0]], 
      "backward_source_id": -1
    }, 
    {
      "op": "null", 
      "param": {}, 
      "name": "stage1_unit2_bn2_gamma", 
      "inputs": [], 
      "backward_source_id": -1
    }, 
    {
      "op": "null", 
      "param": {}, 
      "name": "stage1_unit2_bn2_beta", 
      "inputs": [], 
      "backward_source_id": -1
    }, 
    {
      "op": "BatchNorm", 
      "param": {
        "eps": "2e-05", 
        "fix_gamma": "False", 
        "momentum": "0.9", 
        "use_global_stats": "False"
      }, 
      "name": "stage1_unit2_bn2", 
      "inputs": [[37, 0], [38, 0], [39, 0]], 
      "backward_source_id": -1
    }, 
    {
      "op": "Activation", 
      "param": {"act_type": "relu"}, 
      "name": "stage1_unit2_relu2", 
      "inputs": [[40, 0]], 
      "backward_source_id": -1
    }, 
    {
      "op": "null", 
      "param": {}, 
      "name": "stage1_unit2_conv2_weight", 
      "inputs": [], 
      "backward_source_id": -1
    }, 
    {
      "op": "Convolution", 
      "param": {
        "cudnn_off": "False", 
        "cudnn_tune": "limited_workspace", 
        "dilate": "(1,1)", 
        "kernel": "(3,3)", 
        "no_bias": "True", 
        "num_filter": "64", 
        "num_group": "1", 
        "pad": "(1,1)", 
        "stride": "(1,1)", 
        "workspace": "512"
      }, 
      "name": "stage1_unit2_conv2", 
      "inputs": [[41, 0], [42, 0]], 
      "backward_source_id": -1
    }, 
    {
      "op": "null", 
      "param": {}, 
      "name": "stage1_unit2_bn3_gamma", 
      "inputs": [], 
      "backward_source_id": -1
    }, 
    {
      "op": "null", 
      "param": {}, 
      "name": "stage1_unit2_bn3_beta", 
      "inputs": [], 
      "backward_source_id": -1
    }, 
    {
      "op": "BatchNorm", 
      "param": {
        "eps": "2e-05", 
        "fix_gamma": "False", 
        "momentum": "0.9", 
        "use_global_stats": "False"
      }, 
      "name": "stage1_unit2_bn3", 
      "inputs": [[43, 0], [44, 0], [45, 0]], 
      "backward_source_id": -1
    }, 
    {
      "op": "Activation", 
      "param": {"act_type": "relu"}, 
      "name": "stage1_unit2_relu3", 
      "inputs": [[46, 0]], 
      "backward_source_id": -1
    }, 
    {
      "op": "null", 
      "param": {}, 
      "name": "stage1_unit2_conv3_weight", 
      "inputs": [], 
      "backward_source_id": -1
    }, 
    {
      "op": "Convolution", 
      "param": {
        "cudnn_off": "False", 
        "cudnn_tune": "limited_workspace", 
        "dilate": "(1,1)", 
        "kernel": "(1,1)", 
        "no_bias": "True", 
        "num_filter": "256", 
        "num_group": "1", 
        "pad": "(0,0)", 
        "stride": "(1,1)", 
        "workspace": "512"
      }, 
      "name": "stage1_unit2_conv3", 
      "inputs": [[47, 0], [48, 0]], 
      "backward_source_id": -1
    }, 
    {
      "op": "_Plus", 
      "param": {}, 
      "name": "_plus1", 
      "inputs": [[49, 0], [31, 0]], 
      "backward_source_id": -1
    }, 
    {
      "op": "null", 
      "param": {}, 
      "name": "stage1_unit3_bn1_gamma", 
      "inputs": [], 
      "backward_source_id": -1
    }, 
    {
      "op": "null", 
      "param": {}, 
      "name": "stage1_unit3_bn1_beta", 
      "inputs": [], 
      "backward_source_id": -1
    }, 
    {
      "op": "BatchNorm", 
      "param": {
        "eps": "2e-05", 
        "fix_gamma": "False", 
        "momentum": "0.9", 
        "use_global_stats": "False"
      }, 
      "name": "stage1_unit3_bn1", 
      "inputs": [[50, 0], [51, 0], [52, 0]], 
      "backward_source_id": -1
    }, 
    {
      "op": "Activation", 
      "param": {"act_type": "relu"}, 
      "name": "stage1_unit3_relu1", 
      "inputs": [[53, 0]], 
      "backward_source_id": -1
    }, 
    {
      "op": "null", 
      "param": {}, 
      "name": "stage1_unit3_conv1_weight", 
      "inputs": [], 
      "backward_source_id": -1
    }, 
    {
      "op": "Convolution", 
      "param": {
        "cudnn_off": "False", 
        "cudnn_tune": "limited_workspace", 
        "dilate": "(1,1)", 
        "kernel": "(1,1)", 
        "no_bias": "True", 
        "num_filter": "64", 
        "num_group": "1", 
        "pad": "(0,0)", 
        "stride": "(1,1)", 
        "workspace": "512"
      }, 
      "name": "stage1_unit3_conv1", 
      "inputs": [[54, 0], [55, 0]], 
      "backward_source_id": -1
    }, 
    {
      "op": "null", 
      "param": {}, 
      "name": "stage1_unit3_bn2_gamma", 
      "inputs": [], 
      "backward_source_id": -1
    }, 
    {
      "op": "null", 
      "param": {}, 
      "name": "stage1_unit3_bn2_beta", 
      "inputs": [], 
      "backward_source_id": -1
    }, 
    {
      "op": "BatchNorm", 
      "param": {
        "eps": "2e-05", 
        "fix_gamma": "False", 
        "momentum": "0.9", 
        "use_global_stats": "False"
      }, 
      "name": "stage1_unit3_bn2", 
      "inputs": [[56, 0], [57, 0], [58, 0]], 
      "backward_source_id": -1
    }, 
    {
      "op": "Activation", 
      "param": {"act_type": "relu"}, 
      "name": "stage1_unit3_relu2", 
      "inputs": [[59, 0]], 
      "backward_source_id": -1
    }, 
    {
      "op": "null", 
      "param": {}, 
      "name": "stage1_unit3_conv2_weight", 
      "inputs": [], 
      "backward_source_id": -1
    }, 
    {
      "op": "Convolution", 
      "param": {
        "cudnn_off": "False", 
        "cudnn_tune": "limited_workspace", 
        "dilate": "(1,1)", 
        "kernel": "(3,3)", 
        "no_bias": "True", 
        "num_filter": "64", 
        "num_group": "1", 
        "pad": "(1,1)", 
        "stride": "(1,1)", 
        "workspace": "512"
      }, 
      "name": "stage1_unit3_conv2", 
      "inputs": [[60, 0], [61, 0]], 
      "backward_source_id": -1
    }, 
    {
      "op": "null", 
      "param": {}, 
      "name": "stage1_unit3_bn3_gamma", 
      "inputs": [], 
      "backward_source_id": -1
    }, 
    {
      "op": "null", 
      "param": {}, 
      "name": "stage1_unit3_bn3_beta", 
      "inputs": [], 
      "backward_source_id": -1
    }, 
    {
      "op": "BatchNorm", 
      "param": {
        "eps": "2e-05", 
        "fix_gamma": "False", 
        "momentum": "0.9", 
        "use_global_stats": "False"
      }, 
      "name": "stage1_unit3_bn3", 
      "inputs": [[62, 0], [63, 0], [64, 0]], 
      "backward_source_id": -1
    }, 
    {
      "op": "Activation", 
      "param": {"act_type": "relu"}, 
      "name": "stage1_unit3_relu3", 
      "inputs": [[65, 0]], 
      "backward_source_id": -1
    }, 
    {
      "op": "null", 
      "param": {}, 
      "name": "stage1_unit3_conv3_weight", 
      "inputs": [], 
      "backward_source_id": -1
    }, 
    {
      "op": "Convolution", 
      "param": {
        "cudnn_off": "False", 
        "cudnn_tune": "limited_workspace", 
        "dilate": "(1,1)", 
        "kernel": "(1,1)", 
        "no_bias": "True", 
        "num_filter": "256", 
        "num_group": "1", 
        "pad": "(0,0)", 
        "stride": "(1,1)", 
        "workspace": "512"
      }, 
      "name": "stage1_unit3_conv3", 
      "inputs": [[66, 0], [67, 0]], 
      "backward_source_id": -1
    }, 
    {
      "op": "_Plus", 
      "param": {}, 
      "name": "_plus2", 
      "inputs": [[68, 0], [50, 0]], 
      "backward_source_id": -1
    }, 
    {
      "op": "null", 
      "param": {}, 
      "name": "stage2_unit1_bn1_gamma", 
      "inputs": [], 
      "backward_source_id": -1
    }, 
    {
      "op": "null", 
      "param": {}, 
      "name": "stage2_unit1_bn1_beta", 
      "inputs": [], 
      "backward_source_id": -1
    }, 
    {
      "op": "BatchNorm", 
      "param": {
        "eps": "2e-05", 
        "fix_gamma": "False", 
        "momentum": "0.9", 
        "use_global_stats": "False"
      }, 
      "name": "stage2_unit1_bn1", 
      "inputs": [[69, 0], [70, 0], [71, 0]], 
      "backward_source_id": -1
    }, 
    {
      "op": "Activation", 
      "param": {"act_type": "relu"}, 
      "name": "stage2_unit1_relu1", 
      "inputs": [[72, 0]], 
      "backward_source_id": -1
    }, 
    {
      "op": "null", 
      "param": {}, 
      "name": "stage2_unit1_conv1_weight", 
      "inputs": [], 
      "backward_source_id": -1
    }, 
    {
      "op": "Convolution", 
      "param": {
        "cudnn_off": "False", 
        "cudnn_tune": "limited_workspace", 
        "dilate": "(1,1)", 
        "kernel": "(1,1)", 
        "no_bias": "True", 
        "num_filter": "128", 
        "num_group": "1", 
        "pad": "(0,0)", 
        "stride": "(1,1)", 
        "workspace": "512"
      }, 
      "name": "stage2_unit1_conv1", 
      "inputs": [[73, 0], [74, 0]], 
      "backward_source_id": -1
    }, 
    {
      "op": "null", 
      "param": {}, 
      "name": "stage2_unit1_bn2_gamma", 
      "inputs": [], 
      "backward_source_id": -1
    }, 
    {
      "op": "null", 
      "param": {}, 
      "name": "stage2_unit1_bn2_beta", 
      "inputs": [], 
      "backward_source_id": -1
    }, 
    {
      "op": "BatchNorm", 
      "param": {
        "eps": "2e-05", 
        "fix_gamma": "False", 
        "momentum": "0.9", 
        "use_global_stats": "False"
      }, 
      "name": "stage2_unit1_bn2", 
      "inputs": [[75, 0], [76, 0], [77, 0]], 
      "backward_source_id": -1
    }, 
    {
      "op": "Activation", 
      "param": {"act_type": "relu"}, 
      "name": "stage2_unit1_relu2", 
      "inputs": [[78, 0]], 
      "backward_source_id": -1
    }, 
    {
      "op": "null", 
      "param": {}, 
      "name": "stage2_unit1_conv2_weight", 
      "inputs": [], 
      "backward_source_id": -1
    }, 
    {
      "op": "Convolution", 
      "param": {
        "cudnn_off": "False", 
        "cudnn_tune": "limited_workspace", 
        "dilate": "(1,1)", 
        "kernel": "(3,3)", 
        "no_bias": "True", 
        "num_filter": "128", 
        "num_group": "1", 
        "pad": "(1,1)", 
        "stride": "(2,2)", 
        "workspace": "512"
      }, 
      "name": "stage2_unit1_conv2", 
      "inputs": [[79, 0], [80, 0]], 
      "backward_source_id": -1
    }, 
    {
      "op": "null", 
      "param": {}, 
      "name": "stage2_unit1_bn3_gamma", 
      "inputs": [], 
      "backward_source_id": -1
    }, 
    {
      "op": "null", 
      "param": {}, 
      "name": "stage2_unit1_bn3_beta", 
      "inputs": [], 
      "backward_source_id": -1
    }, 
    {
      "op": "BatchNorm", 
      "param": {
        "eps": "2e-05", 
        "fix_gamma": "False", 
        "momentum": "0.9", 
        "use_global_stats": "False"
      }, 
      "name": "stage2_unit1_bn3", 
      "inputs": [[81, 0], [82, 0], [83, 0]], 
      "backward_source_id": -1
    }, 
    {
      "op": "Activation", 
      "param": {"act_type": "relu"}, 
      "name": "stage2_unit1_relu3", 
      "inputs": [[84, 0]], 
      "backward_source_id": -1
    }, 
    {
      "op": "null", 
      "param": {}, 
      "name": "stage2_unit1_conv3_weight", 
      "inputs": [], 
      "backward_source_id": -1
    }, 
    {
      "op": "Convolution", 
      "param": {
        "cudnn_off": "False", 
        "cudnn_tune": "limited_workspace", 
        "dilate": "(1,1)", 
        "kernel": "(1,1)", 
        "no_bias": "True", 
        "num_filter": "512", 
        "num_group": "1", 
        "pad": "(0,0)", 
        "stride": "(1,1)", 
        "workspace": "512"
      }, 
      "name": "stage2_unit1_conv3", 
      "inputs": [[85, 0], [86, 0]], 
      "backward_source_id": -1
    }, 
    {
      "op": "null", 
      "param": {}, 
      "name": "stage2_unit1_sc_weight", 
      "inputs": [], 
      "backward_source_id": -1
    }, 
    {
      "op": "Convolution", 
      "param": {
        "cudnn_off": "False", 
        "cudnn_tune": "limited_workspace", 
        "dilate": "(1,1)", 
        "kernel": "(1,1)", 
        "no_bias": "True", 
        "num_filter": "512", 
        "num_group": "1", 
        "pad": "(0,0)", 
        "stride": "(2,2)", 
        "workspace": "512"
      }, 
      "name": "stage2_unit1_sc", 
      "inputs": [[73, 0], [88, 0]], 
      "backward_source_id": -1
    }, 
    {
      "op": "_Plus", 
      "param": {}, 
      "name": "_plus3", 
      "inputs": [[87, 0], [89, 0]], 
      "backward_source_id": -1
    }, 
    {
      "op": "null", 
      "param": {}, 
      "name": "stage2_unit2_bn1_gamma", 
      "inputs": [], 
      "backward_source_id": -1
    }, 
    {
      "op": "null", 
      "param": {}, 
      "name": "stage2_unit2_bn1_beta", 
      "inputs": [], 
      "backward_source_id": -1
    }, 
    {
      "op": "BatchNorm", 
      "param": {
        "eps": "2e-05", 
        "fix_gamma": "False", 
        "momentum": "0.9", 
        "use_global_stats": "False"
      }, 
      "name": "stage2_unit2_bn1", 
      "inputs": [[90, 0], [91, 0], [92, 0]], 
      "backward_source_id": -1
    }, 
    {
      "op": "Activation", 
      "param": {"act_type": "relu"}, 
      "name": "stage2_unit2_relu1", 
      "inputs": [[93, 0]], 
      "backward_source_id": -1
    }, 
    {
      "op": "null", 
      "param": {}, 
      "name": "stage2_unit2_conv1_weight", 
      "inputs": [], 
      "backward_source_id": -1
    }, 
    {
      "op": "Convolution", 
      "param": {
        "cudnn_off": "False", 
        "cudnn_tune": "limited_workspace", 
        "dilate": "(1,1)", 
        "kernel": "(1,1)", 
        "no_bias": "True", 
        "num_filter": "128", 
        "num_group": "1", 
        "pad": "(0,0)", 
        "stride": "(1,1)", 
        "workspace": "512"
      }, 
      "name": "stage2_unit2_conv1", 
      "inputs": [[94, 0], [95, 0]], 
      "backward_source_id": -1
    }, 
    {
      "op": "null", 
      "param": {}, 
      "name": "stage2_unit2_bn2_gamma", 
      "inputs": [], 
      "backward_source_id": -1
    }, 
    {
      "op": "null", 
      "param": {}, 
      "name": "stage2_unit2_bn2_beta", 
      "inputs": [], 
      "backward_source_id": -1
    }, 
    {
      "op": "BatchNorm", 
      "param": {
        "eps": "2e-05", 
        "fix_gamma": "False", 
        "momentum": "0.9", 
        "use_global_stats": "False"
      }, 
      "name": "stage2_unit2_bn2", 
      "inputs": [[96, 0], [97, 0], [98, 0]], 
      "backward_source_id": -1
    }, 
    {
      "op": "Activation", 
      "param": {"act_type": "relu"}, 
      "name": "stage2_unit2_relu2", 
      "inputs": [[99, 0]], 
      "backward_source_id": -1
    }, 
    {
      "op": "null", 
      "param": {}, 
      "name": "stage2_unit2_conv2_weight", 
      "inputs": [], 
      "backward_source_id": -1
    }, 
    {
      "op": "Convolution", 
      "param": {
        "cudnn_off": "False", 
        "cudnn_tune": "limited_workspace", 
        "dilate": "(1,1)", 
        "kernel": "(3,3)", 
        "no_bias": "True", 
        "num_filter": "128", 
        "num_group": "1", 
        "pad": "(1,1)", 
        "stride": "(1,1)", 
        "workspace": "512"
      }, 
      "name": "stage2_unit2_conv2", 
      "inputs": [[100, 0], [101, 0]], 
      "backward_source_id": -1
    }, 
    {
      "op": "null", 
      "param": {}, 
      "name": "stage2_unit2_bn3_gamma", 
      "inputs": [], 
      "backward_source_id": -1
    }, 
    {
      "op": "null", 
      "param": {}, 
      "name": "stage2_unit2_bn3_beta", 
      "inputs": [], 
      "backward_source_id": -1
    }, 
    {
      "op": "BatchNorm", 
      "param": {
        "eps": "2e-05", 
        "fix_gamma": "False", 
        "momentum": "0.9", 
        "use_global_stats": "False"
      }, 
      "name": "stage2_unit2_bn3", 
      "inputs": [[102, 0], [103, 0], [104, 0]], 
      "backward_source_id": -1
    }, 
    {
      "op": "Activation", 
      "param": {"act_type": "relu"}, 
      "name": "stage2_unit2_relu3", 
      "inputs": [[105, 0]], 
      "backward_source_id": -1
    }, 
    {
      "op": "null", 
      "param": {}, 
      "name": "stage2_unit2_conv3_weight", 
      "inputs": [], 
      "backward_source_id": -1
    }, 
    {
      "op": "Convolution", 
      "param": {
        "cudnn_off": "False", 
        "cudnn_tune": "limited_workspace", 
        "dilate": "(1,1)", 
        "kernel": "(1,1)", 
        "no_bias": "True", 
        "num_filter": "512", 
        "num_group": "1", 
        "pad": "(0,0)", 
        "stride": "(1,1)", 
        "workspace": "512"
      }, 
      "name": "stage2_unit2_conv3", 
      "inputs": [[106, 0], [107, 0]], 
      "backward_source_id": -1
    }, 
    {
      "op": "_Plus", 
      "param": {}, 
      "name": "_plus4", 
      "inputs": [[108, 0], [90, 0]], 
      "backward_source_id": -1
    }, 
    {
      "op": "null", 
      "param": {}, 
      "name": "stage2_unit3_bn1_gamma", 
      "inputs": [], 
      "backward_source_id": -1
    }, 
    {
      "op": "null", 
      "param": {}, 
      "name": "stage2_unit3_bn1_beta", 
      "inputs": [], 
      "backward_source_id": -1
    }, 
    {
      "op": "BatchNorm", 
      "param": {
        "eps": "2e-05", 
        "fix_gamma": "False", 
        "momentum": "0.9", 
        "use_global_stats": "False"
      }, 
      "name": "stage2_unit3_bn1", 
      "inputs": [[109, 0], [110, 0], [111, 0]], 
      "backward_source_id": -1
    }, 
    {
      "op": "Activation", 
      "param": {"act_type": "relu"}, 
      "name": "stage2_unit3_relu1", 
      "inputs": [[112, 0]], 
      "backward_source_id": -1
    }, 
    {
      "op": "null", 
      "param": {}, 
      "name": "stage2_unit3_conv1_weight", 
      "inputs": [], 
      "backward_source_id": -1
    }, 
    {
      "op": "Convolution", 
      "param": {
        "cudnn_off": "False", 
        "cudnn_tune": "limited_workspace", 
        "dilate": "(1,1)", 
        "kernel": "(1,1)", 
        "no_bias": "True", 
        "num_filter": "128", 
        "num_group": "1", 
        "pad": "(0,0)", 
        "stride": "(1,1)", 
        "workspace": "512"
      }, 
      "name": "stage2_unit3_conv1", 
      "inputs": [[113, 0], [114, 0]], 
      "backward_source_id": -1
    }, 
    {
      "op": "null", 
      "param": {}, 
      "name": "stage2_unit3_bn2_gamma", 
      "inputs": [], 
      "backward_source_id": -1
    }, 
    {
      "op": "null", 
      "param": {}, 
      "name": "stage2_unit3_bn2_beta", 
      "inputs": [], 
      "backward_source_id": -1
    }, 
    {
      "op": "BatchNorm", 
      "param": {
        "eps": "2e-05", 
        "fix_gamma": "False", 
        "momentum": "0.9", 
        "use_global_stats": "False"
      }, 
      "name": "stage2_unit3_bn2", 
      "inputs": [[115, 0], [116, 0], [117, 0]], 
      "backward_source_id": -1
    }, 
    {
      "op": "Activation", 
      "param": {"act_type": "relu"}, 
      "name": "stage2_unit3_relu2", 
      "inputs": [[118, 0]], 
      "backward_source_id": -1
    }, 
    {
      "op": "null", 
      "param": {}, 
      "name": "stage2_unit3_conv2_weight", 
      "inputs": [], 
      "backward_source_id": -1
    }, 
    {
      "op": "Convolution", 
      "param": {
        "cudnn_off": "False", 
        "cudnn_tune": "limited_workspace", 
        "dilate": "(1,1)", 
        "kernel": "(3,3)", 
        "no_bias": "True", 
        "num_filter": "128", 
        "num_group": "1", 
        "pad": "(1,1)", 
        "stride": "(1,1)", 
        "workspace": "512"
      }, 
      "name": "stage2_unit3_conv2", 
      "inputs": [[119, 0], [120, 0]], 
      "backward_source_id": -1
    }, 
    {
      "op": "null", 
      "param": {}, 
      "name": "stage2_unit3_bn3_gamma", 
      "inputs": [], 
      "backward_source_id": -1
    }, 
    {
      "op": "null", 
      "param": {}, 
      "name": "stage2_unit3_bn3_beta", 
      "inputs": [], 
      "backward_source_id": -1
    }, 
    {
      "op": "BatchNorm", 
      "param": {
        "eps": "2e-05", 
        "fix_gamma": "False", 
        "momentum": "0.9", 
        "use_global_stats": "False"
      }, 
      "name": "stage2_unit3_bn3", 
      "inputs": [[121, 0], [122, 0], [123, 0]], 
      "backward_source_id": -1
    }, 
    {
      "op": "Activation", 
      "param": {"act_type": "relu"}, 
      "name": "stage2_unit3_relu3", 
      "inputs": [[124, 0]], 
      "backward_source_id": -1
    }, 
    {
      "op": "null", 
      "param": {}, 
      "name": "stage2_unit3_conv3_weight", 
      "inputs": [], 
      "backward_source_id": -1
    }, 
    {
      "op": "Convolution", 
      "param": {
        "cudnn_off": "False", 
        "cudnn_tune": "limited_workspace", 
        "dilate": "(1,1)", 
        "kernel": "(1,1)", 
        "no_bias": "True", 
        "num_filter": "512", 
        "num_group": "1", 
        "pad": "(0,0)", 
        "stride": "(1,1)", 
        "workspace": "512"
      }, 
      "name": "stage2_unit3_conv3", 
      "inputs": [[125, 0], [126, 0]], 
      "backward_source_id": -1
    }, 
    {
      "op": "_Plus", 
      "param": {}, 
      "name": "_plus5", 
      "inputs": [[127, 0], [109, 0]], 
      "backward_source_id": -1
    }, 
    {
      "op": "null", 
      "param": {}, 
      "name": "stage2_unit4_bn1_gamma", 
      "inputs": [], 
      "backward_source_id": -1
    }, 
    {
      "op": "null", 
      "param": {}, 
      "name": "stage2_unit4_bn1_beta", 
      "inputs": [], 
      "backward_source_id": -1
    }, 
    {
      "op": "BatchNorm", 
      "param": {
        "eps": "2e-05", 
        "fix_gamma": "False", 
        "momentum": "0.9", 
        "use_global_stats": "False"
      }, 
      "name": "stage2_unit4_bn1", 
      "inputs": [[128, 0], [129, 0], [130, 0]], 
      "backward_source_id": -1
    }, 
    {
      "op": "Activation", 
      "param": {"act_type": "relu"}, 
      "name": "stage2_unit4_relu1", 
      "inputs": [[131, 0]], 
      "backward_source_id": -1
    }, 
    {
      "op": "null", 
      "param": {}, 
      "name": "stage2_unit4_conv1_weight", 
      "inputs": [], 
      "backward_source_id": -1
    }, 
    {
      "op": "Convolution", 
      "param": {
        "cudnn_off": "False", 
        "cudnn_tune": "limited_workspace", 
        "dilate": "(1,1)", 
        "kernel": "(1,1)", 
        "no_bias": "True", 
        "num_filter": "128", 
        "num_group": "1", 
        "pad": "(0,0)", 
        "stride": "(1,1)", 
        "workspace": "512"
      }, 
      "name": "stage2_unit4_conv1", 
      "inputs": [[132, 0], [133, 0]], 
      "backward_source_id": -1
    }, 
    {
      "op": "null", 
      "param": {}, 
      "name": "stage2_unit4_bn2_gamma", 
      "inputs": [], 
      "backward_source_id": -1
    }, 
    {
      "op": "null", 
      "param": {}, 
      "name": "stage2_unit4_bn2_beta", 
      "inputs": [], 
      "backward_source_id": -1
    }, 
    {
      "op": "BatchNorm", 
      "param": {
        "eps": "2e-05", 
        "fix_gamma": "False", 
        "momentum": "0.9", 
        "use_global_stats": "False"
      }, 
      "name": "stage2_unit4_bn2", 
      "inputs": [[134, 0], [135, 0], [136, 0]], 
      "backward_source_id": -1
    }, 
    {
      "op": "Activation", 
      "param": {"act_type": "relu"}, 
      "name": "stage2_unit4_relu2", 
      "inputs": [[137, 0]], 
      "backward_source_id": -1
    }, 
    {
      "op": "null", 
      "param": {}, 
      "name": "stage2_unit4_conv2_weight", 
      "inputs": [], 
      "backward_source_id": -1
    }, 
    {
      "op": "Convolution", 
      "param": {
        "cudnn_off": "False", 
        "cudnn_tune": "limited_workspace", 
        "dilate": "(1,1)", 
        "kernel": "(3,3)", 
        "no_bias": "True", 
        "num_filter": "128", 
        "num_group": "1", 
        "pad": "(1,1)", 
        "stride": "(1,1)", 
        "workspace": "512"
      }, 
      "name": "stage2_unit4_conv2", 
      "inputs": [[138, 0], [139, 0]], 
      "backward_source_id": -1
    }, 
    {
      "op": "null", 
      "param": {}, 
      "name": "stage2_unit4_bn3_gamma", 
      "inputs": [], 
      "backward_source_id": -1
    }, 
    {
      "op": "null", 
      "param": {}, 
      "name": "stage2_unit4_bn3_beta", 
      "inputs": [], 
      "backward_source_id": -1
    }, 
    {
      "op": "BatchNorm", 
      "param": {
        "eps": "2e-05", 
        "fix_gamma": "False", 
        "momentum": "0.9", 
        "use_global_stats": "False"
      }, 
      "name": "stage2_unit4_bn3", 
      "inputs": [[140, 0], [141, 0], [142, 0]], 
      "backward_source_id": -1
    }, 
    {
      "op": "Activation", 
      "param": {"act_type": "relu"}, 
      "name": "stage2_unit4_relu3", 
      "inputs": [[143, 0]], 
      "backward_source_id": -1
    }, 
    {
      "op": "null", 
      "param": {}, 
      "name": "stage2_unit4_conv3_weight", 
      "inputs": [], 
      "backward_source_id": -1
    }, 
    {
      "op": "Convolution", 
      "param": {
        "cudnn_off": "False", 
        "cudnn_tune": "limited_workspace", 
        "dilate": "(1,1)", 
        "kernel": "(1,1)", 
        "no_bias": "True", 
        "num_filter": "512", 
        "num_group": "1", 
        "pad": "(0,0)", 
        "stride": "(1,1)", 
        "workspace": "512"
      }, 
      "name": "stage2_unit4_conv3", 
      "inputs": [[144, 0], [145, 0]], 
      "backward_source_id": -1
    }, 
    {
      "op": "_Plus", 
      "param": {}, 
      "name": "_plus6", 
      "inputs": [[146, 0], [128, 0]], 
      "backward_source_id": -1
    }, 
    {
      "op": "null", 
      "param": {}, 
      "name": "stage3_unit1_bn1_gamma", 
      "inputs": [], 
      "backward_source_id": -1
    }, 
    {
      "op": "null", 
      "param": {}, 
      "name": "stage3_unit1_bn1_beta", 
      "inputs": [], 
      "backward_source_id": -1
    }, 
    {
      "op": "BatchNorm", 
      "param": {
        "eps": "2e-05", 
        "fix_gamma": "False", 
        "momentum": "0.9", 
        "use_global_stats": "False"
      }, 
      "name": "stage3_unit1_bn1", 
      "inputs": [[147, 0], [148, 0], [149, 0]], 
      "backward_source_id": -1
    }, 
    {
      "op": "Activation", 
      "param": {"act_type": "relu"}, 
      "name": "stage3_unit1_relu1", 
      "inputs": [[150, 0]], 
      "backward_source_id": -1
    }, 
    {
      "op": "null", 
      "param": {}, 
      "name": "stage3_unit1_conv1_weight", 
      "inputs": [], 
      "backward_source_id": -1
    }, 
    {
      "op": "Convolution", 
      "param": {
        "cudnn_off": "False", 
        "cudnn_tune": "limited_workspace", 
        "dilate": "(1,1)", 
        "kernel": "(1,1)", 
        "no_bias": "True", 
        "num_filter": "256", 
        "num_group": "1", 
        "pad": "(0,0)", 
        "stride": "(1,1)", 
        "workspace": "512"
      }, 
      "name": "stage3_unit1_conv1", 
      "inputs": [[151, 0], [152, 0]], 
      "backward_source_id": -1
    }, 
    {
      "op": "null", 
      "param": {}, 
      "name": "stage3_unit1_bn2_gamma", 
      "inputs": [], 
      "backward_source_id": -1
    }, 
    {
      "op": "null", 
      "param": {}, 
      "name": "stage3_unit1_bn2_beta", 
      "inputs": [], 
      "backward_source_id": -1
    }, 
    {
      "op": "BatchNorm", 
      "param": {
        "eps": "2e-05", 
        "fix_gamma": "False", 
        "momentum": "0.9", 
        "use_global_stats": "False"
      }, 
      "name": "stage3_unit1_bn2", 
      "inputs": [[153, 0], [154, 0], [155, 0]], 
      "backward_source_id": -1
    }, 
    {
      "op": "Activation", 
      "param": {"act_type": "relu"}, 
      "name": "stage3_unit1_relu2", 
      "inputs": [[156, 0]], 
      "backward_source_id": -1
    }, 
    {
      "op": "null", 
      "param": {}, 
      "name": "stage3_unit1_conv2_weight", 
      "inputs": [], 
      "backward_source_id": -1
    }, 
    {
      "op": "Convolution", 
      "param": {
        "cudnn_off": "False", 
        "cudnn_tune": "limited_workspace", 
        "dilate": "(1,1)", 
        "kernel": "(3,3)", 
        "no_bias": "True", 
        "num_filter": "256", 
        "num_group": "1", 
        "pad": "(1,1)", 
        "stride": "(2,2)", 
        "workspace": "512"
      }, 
      "name": "stage3_unit1_conv2", 
      "inputs": [[157, 0], [158, 0]], 
      "backward_source_id": -1
    }, 
    {
      "op": "null", 
      "param": {}, 
      "name": "stage3_unit1_bn3_gamma", 
      "inputs": [], 
      "backward_source_id": -1
    }, 
    {
      "op": "null", 
      "param": {}, 
      "name": "stage3_unit1_bn3_beta", 
      "inputs": [], 
      "backward_source_id": -1
    }, 
    {
      "op": "BatchNorm", 
      "param": {
        "eps": "2e-05", 
        "fix_gamma": "False", 
        "momentum": "0.9", 
        "use_global_stats": "False"
      }, 
      "name": "stage3_unit1_bn3", 
      "inputs": [[159, 0], [160, 0], [161, 0]], 
      "backward_source_id": -1
    }, 
    {
      "op": "Activation", 
      "param": {"act_type": "relu"}, 
      "name": "stage3_unit1_relu3", 
      "inputs": [[162, 0]], 
      "backward_source_id": -1
    }, 
    {
      "op": "null", 
      "param": {}, 
      "name": "stage3_unit1_conv3_weight", 
      "inputs": [], 
      "backward_source_id": -1
    }, 
    {
      "op": "Convolution", 
      "param": {
        "cudnn_off": "False", 
        "cudnn_tune": "limited_workspace", 
        "dilate": "(1,1)", 
        "kernel": "(1,1)", 
        "no_bias": "True", 
        "num_filter": "1024", 
        "num_group": "1", 
        "pad": "(0,0)", 
        "stride": "(1,1)", 
        "workspace": "512"
      }, 
      "name": "stage3_unit1_conv3", 
      "inputs": [[163, 0], [164, 0]], 
      "backward_source_id": -1
    }, 
    {
      "op": "null", 
      "param": {}, 
      "name": "stage3_unit1_sc_weight", 
      "inputs": [], 
      "backward_source_id": -1
    }, 
    {
      "op": "Convolution", 
      "param": {
        "cudnn_off": "False", 
        "cudnn_tune": "limited_workspace", 
        "dilate": "(1,1)", 
        "kernel": "(1,1)", 
        "no_bias": "True", 
        "num_filter": "1024", 
        "num_group": "1", 
        "pad": "(0,0)", 
        "stride": "(2,2)", 
        "workspace": "512"
      }, 
      "name": "stage3_unit1_sc", 
      "inputs": [[151, 0], [166, 0]], 
      "backward_source_id": -1
    }, 
    {
      "op": "_Plus", 
      "param": {}, 
      "name": "_plus7", 
      "inputs": [[165, 0], [167, 0]], 
      "backward_source_id": -1
    }, 
    {
      "op": "null", 
      "param": {}, 
      "name": "stage3_unit2_bn1_gamma", 
      "inputs": [], 
      "backward_source_id": -1
    }, 
    {
      "op": "null", 
      "param": {}, 
      "name": "stage3_unit2_bn1_beta", 
      "inputs": [], 
      "backward_source_id": -1
    }, 
    {
      "op": "BatchNorm", 
      "param": {
        "eps": "2e-05", 
        "fix_gamma": "False", 
        "momentum": "0.9", 
        "use_global_stats": "False"
      }, 
      "name": "stage3_unit2_bn1", 
      "inputs": [[168, 0], [169, 0], [170, 0]], 
      "backward_source_id": -1
    }, 
    {
      "op": "Activation", 
      "param": {"act_type": "relu"}, 
      "name": "stage3_unit2_relu1", 
      "inputs": [[171, 0]], 
      "backward_source_id": -1
    }, 
    {
      "op": "null", 
      "param": {}, 
      "name": "stage3_unit2_conv1_weight", 
      "inputs": [], 
      "backward_source_id": -1
    }, 
    {
      "op": "Convolution", 
      "param": {
        "cudnn_off": "False", 
        "cudnn_tune": "limited_workspace", 
        "dilate": "(1,1)", 
        "kernel": "(1,1)", 
        "no_bias": "True", 
        "num_filter": "256", 
        "num_group": "1", 
        "pad": "(0,0)", 
        "stride": "(1,1)", 
        "workspace": "512"
      }, 
      "name": "stage3_unit2_conv1", 
      "inputs": [[172, 0], [173, 0]], 
      "backward_source_id": -1
    }, 
    {
      "op": "null", 
      "param": {}, 
      "name": "stage3_unit2_bn2_gamma", 
      "inputs": [], 
      "backward_source_id": -1
    }, 
    {
      "op": "null", 
      "param": {}, 
      "name": "stage3_unit2_bn2_beta", 
      "inputs": [], 
      "backward_source_id": -1
    }, 
    {
      "op": "BatchNorm", 
      "param": {
        "eps": "2e-05", 
        "fix_gamma": "False", 
        "momentum": "0.9", 
        "use_global_stats": "False"
      }, 
      "name": "stage3_unit2_bn2", 
      "inputs": [[174, 0], [175, 0], [176, 0]], 
      "backward_source_id": -1
    }, 
    {
      "op": "Activation", 
      "param": {"act_type": "relu"}, 
      "name": "stage3_unit2_relu2", 
      "inputs": [[177, 0]], 
      "backward_source_id": -1
    }, 
    {
      "op": "null", 
      "param": {}, 
      "name": "stage3_unit2_conv2_weight", 
      "inputs": [], 
      "backward_source_id": -1
    }, 
    {
      "op": "Convolution", 
      "param": {
        "cudnn_off": "False", 
        "cudnn_tune": "limited_workspace", 
        "dilate": "(1,1)", 
        "kernel": "(3,3)", 
        "no_bias": "True", 
        "num_filter": "256", 
        "num_group": "1", 
        "pad": "(1,1)", 
        "stride": "(1,1)", 
        "workspace": "512"
      }, 
      "name": "stage3_unit2_conv2", 
      "inputs": [[178, 0], [179, 0]], 
      "backward_source_id": -1
    }, 
    {
      "op": "null", 
      "param": {}, 
      "name": "stage3_unit2_bn3_gamma", 
      "inputs": [], 
      "backward_source_id": -1
    }, 
    {
      "op": "null", 
      "param": {}, 
      "name": "stage3_unit2_bn3_beta", 
      "inputs": [], 
      "backward_source_id": -1
    }, 
    {
      "op": "BatchNorm", 
      "param": {
        "eps": "2e-05", 
        "fix_gamma": "False", 
        "momentum": "0.9", 
        "use_global_stats": "False"
      }, 
      "name": "stage3_unit2_bn3", 
      "inputs": [[180, 0], [181, 0], [182, 0]], 
      "backward_source_id": -1
    }, 
    {
      "op": "Activation", 
      "param": {"act_type": "relu"}, 
      "name": "stage3_unit2_relu3", 
      "inputs": [[183, 0]], 
      "backward_source_id": -1
    }, 
    {
      "op": "null", 
      "param": {}, 
      "name": "stage3_unit2_conv3_weight", 
      "inputs": [], 
      "backward_source_id": -1
    }, 
    {
      "op": "Convolution", 
      "param": {
        "cudnn_off": "False", 
        "cudnn_tune": "limited_workspace", 
        "dilate": "(1,1)", 
        "kernel": "(1,1)", 
        "no_bias": "True", 
        "num_filter": "1024", 
        "num_group": "1", 
        "pad": "(0,0)", 
        "stride": "(1,1)", 
        "workspace": "512"
      }, 
      "name": "stage3_unit2_conv3", 
      "inputs": [[184, 0], [185, 0]], 
      "backward_source_id": -1
    }, 
    {
      "op": "_Plus", 
      "param": {}, 
      "name": "_plus8", 
      "inputs": [[186, 0], [168, 0]], 
      "backward_source_id": -1
    }, 
    {
      "op": "null", 
      "param": {}, 
      "name": "stage3_unit3_bn1_gamma", 
      "inputs": [], 
      "backward_source_id": -1
    }, 
    {
      "op": "null", 
      "param": {}, 
      "name": "stage3_unit3_bn1_beta", 
      "inputs": [], 
      "backward_source_id": -1
    }, 
    {
      "op": "BatchNorm", 
      "param": {
        "eps": "2e-05", 
        "fix_gamma": "False", 
        "momentum": "0.9", 
        "use_global_stats": "False"
      }, 
      "name": "stage3_unit3_bn1", 
      "inputs": [[187, 0], [188, 0], [189, 0]], 
      "backward_source_id": -1
    }, 
    {
      "op": "Activation", 
      "param": {"act_type": "relu"}, 
      "name": "stage3_unit3_relu1", 
      "inputs": [[190, 0]], 
      "backward_source_id": -1
    }, 
    {
      "op": "null", 
      "param": {}, 
      "name": "stage3_unit3_conv1_weight", 
      "inputs": [], 
      "backward_source_id": -1
    }, 
    {
      "op": "Convolution", 
      "param": {
        "cudnn_off": "False", 
        "cudnn_tune": "limited_workspace", 
        "dilate": "(1,1)", 
        "kernel": "(1,1)", 
        "no_bias": "True", 
        "num_filter": "256", 
        "num_group": "1", 
        "pad": "(0,0)", 
        "stride": "(1,1)", 
        "workspace": "512"
      }, 
      "name": "stage3_unit3_conv1", 
      "inputs": [[191, 0], [192, 0]], 
      "backward_source_id": -1
    }, 
    {
      "op": "null", 
      "param": {}, 
      "name": "stage3_unit3_bn2_gamma", 
      "inputs": [], 
      "backward_source_id": -1
    }, 
    {
      "op": "null", 
      "param": {}, 
      "name": "stage3_unit3_bn2_beta", 
      "inputs": [], 
      "backward_source_id": -1
    }, 
    {
      "op": "BatchNorm", 
      "param": {
        "eps": "2e-05", 
        "fix_gamma": "False", 
        "momentum": "0.9", 
        "use_global_stats": "False"
      }, 
      "name": "stage3_unit3_bn2", 
      "inputs": [[193, 0], [194, 0], [195, 0]], 
      "backward_source_id": -1
    }, 
    {
      "op": "Activation", 
      "param": {"act_type": "relu"}, 
      "name": "stage3_unit3_relu2", 
      "inputs": [[196, 0]], 
      "backward_source_id": -1
    }, 
    {
      "op": "null", 
      "param": {}, 
      "name": "stage3_unit3_conv2_weight", 
      "inputs": [], 
      "backward_source_id": -1
    }, 
    {
      "op": "Convolution", 
      "param": {
        "cudnn_off": "False", 
        "cudnn_tune": "limited_workspace", 
        "dilate": "(1,1)", 
        "kernel": "(3,3)", 
        "no_bias": "True", 
        "num_filter": "256", 
        "num_group": "1", 
        "pad": "(1,1)", 
        "stride": "(1,1)", 
        "workspace": "512"
      }, 
      "name": "stage3_unit3_conv2", 
      "inputs": [[197, 0], [198, 0]], 
      "backward_source_id": -1
    }, 
    {
      "op": "null", 
      "param": {}, 
      "name": "stage3_unit3_bn3_gamma", 
      "inputs": [], 
      "backward_source_id": -1
    }, 
    {
      "op": "null", 
      "param": {}, 
      "name": "stage3_unit3_bn3_beta", 
      "inputs": [], 
      "backward_source_id": -1
    }, 
    {
      "op": "BatchNorm", 
      "param": {
        "eps": "2e-05", 
        "fix_gamma": "False", 
        "momentum": "0.9", 
        "use_global_stats": "False"
      }, 
      "name": "stage3_unit3_bn3", 
      "inputs": [[199, 0], [200, 0], [201, 0]], 
      "backward_source_id": -1
    }, 
    {
      "op": "Activation", 
      "param": {"act_type": "relu"}, 
      "name": "stage3_unit3_relu3", 
      "inputs": [[202, 0]], 
      "backward_source_id": -1
    }, 
    {
      "op": "null", 
      "param": {}, 
      "name": "stage3_unit3_conv3_weight", 
      "inputs": [], 
      "backward_source_id": -1
    }, 
    {
      "op": "Convolution", 
      "param": {
        "cudnn_off": "False", 
        "cudnn_tune": "limited_workspace", 
        "dilate": "(1,1)", 
        "kernel": "(1,1)", 
        "no_bias": "True", 
        "num_filter": "1024", 
        "num_group": "1", 
        "pad": "(0,0)", 
        "stride": "(1,1)", 
        "workspace": "512"
      }, 
      "name": "stage3_unit3_conv3", 
      "inputs": [[203, 0], [204, 0]], 
      "backward_source_id": -1
    }, 
    {
      "op": "_Plus", 
      "param": {}, 
      "name": "_plus9", 
      "inputs": [[205, 0], [187, 0]], 
      "backward_source_id": -1
    }, 
    {
      "op": "null", 
      "param": {}, 
      "name": "stage3_unit4_bn1_gamma", 
      "inputs": [], 
      "backward_source_id": -1
    }, 
    {
      "op": "null", 
      "param": {}, 
      "name": "stage3_unit4_bn1_beta", 
      "inputs": [], 
      "backward_source_id": -1
    }, 
    {
      "op": "BatchNorm", 
      "param": {
        "eps": "2e-05", 
        "fix_gamma": "False", 
        "momentum": "0.9", 
        "use_global_stats": "False"
      }, 
      "name": "stage3_unit4_bn1", 
      "inputs": [[206, 0], [207, 0], [208, 0]], 
      "backward_source_id": -1
    }, 
    {
      "op": "Activation", 
      "param": {"act_type": "relu"}, 
      "name": "stage3_unit4_relu1", 
      "inputs": [[209, 0]], 
      "backward_source_id": -1
    }, 
    {
      "op": "null", 
      "param": {}, 
      "name": "stage3_unit4_conv1_weight", 
      "inputs": [], 
      "backward_source_id": -1
    }, 
    {
      "op": "Convolution", 
      "param": {
        "cudnn_off": "False", 
        "cudnn_tune": "limited_workspace", 
        "dilate": "(1,1)", 
        "kernel": "(1,1)", 
        "no_bias": "True", 
        "num_filter": "256", 
        "num_group": "1", 
        "pad": "(0,0)", 
        "stride": "(1,1)", 
        "workspace": "512"
      }, 
      "name": "stage3_unit4_conv1", 
      "inputs": [[210, 0], [211, 0]], 
      "backward_source_id": -1
    }, 
    {
      "op": "null", 
      "param": {}, 
      "name": "stage3_unit4_bn2_gamma", 
      "inputs": [], 
      "backward_source_id": -1
    }, 
    {
      "op": "null", 
      "param": {}, 
      "name": "stage3_unit4_bn2_beta", 
      "inputs": [], 
      "backward_source_id": -1
    }, 
    {
      "op": "BatchNorm", 
      "param": {
        "eps": "2e-05", 
        "fix_gamma": "False", 
        "momentum": "0.9", 
        "use_global_stats": "False"
      }, 
      "name": "stage3_unit4_bn2", 
      "inputs": [[212, 0], [213, 0], [214, 0]], 
      "backward_source_id": -1
    }, 
    {
      "op": "Activation", 
      "param": {"act_type": "relu"}, 
      "name": "stage3_unit4_relu2", 
      "inputs": [[215, 0]], 
      "backward_source_id": -1
    }, 
    {
      "op": "null", 
      "param": {}, 
      "name": "stage3_unit4_conv2_weight", 
      "inputs": [], 
      "backward_source_id": -1
    }, 
    {
      "op": "Convolution", 
      "param": {
        "cudnn_off": "False", 
        "cudnn_tune": "limited_workspace", 
        "dilate": "(1,1)", 
        "kernel": "(3,3)", 
        "no_bias": "True", 
        "num_filter": "256", 
        "num_group": "1", 
        "pad": "(1,1)", 
        "stride": "(1,1)", 
        "workspace": "512"
      }, 
      "name": "stage3_unit4_conv2", 
      "inputs": [[216, 0], [217, 0]], 
      "backward_source_id": -1
    }, 
    {
      "op": "null", 
      "param": {}, 
      "name": "stage3_unit4_bn3_gamma", 
      "inputs": [], 
      "backward_source_id": -1
    }, 
    {
      "op": "null", 
      "param": {}, 
      "name": "stage3_unit4_bn3_beta", 
      "inputs": [], 
      "backward_source_id": -1
    }, 
    {
      "op": "BatchNorm", 
      "param": {
        "eps": "2e-05", 
        "fix_gamma": "False", 
        "momentum": "0.9", 
        "use_global_stats": "False"
      }, 
      "name": "stage3_unit4_bn3", 
      "inputs": [[218, 0], [219, 0], [220, 0]], 
      "backward_source_id": -1
    }, 
    {
      "op": "Activation", 
      "param": {"act_type": "relu"}, 
      "name": "stage3_unit4_relu3", 
      "inputs": [[221, 0]], 
      "backward_source_id": -1
    }, 
    {
      "op": "null", 
      "param": {}, 
      "name": "stage3_unit4_conv3_weight", 
      "inputs": [], 
      "backward_source_id": -1
    }, 
    {
      "op": "Convolution", 
      "param": {
        "cudnn_off": "False", 
        "cudnn_tune": "limited_workspace", 
        "dilate": "(1,1)", 
        "kernel": "(1,1)", 
        "no_bias": "True", 
        "num_filter": "1024", 
        "num_group": "1", 
        "pad": "(0,0)", 
        "stride": "(1,1)", 
        "workspace": "512"
      }, 
      "name": "stage3_unit4_conv3", 
      "inputs": [[222, 0], [223, 0]], 
      "backward_source_id": -1
    }, 
    {
      "op": "_Plus", 
      "param": {}, 
      "name": "_plus10", 
      "inputs": [[224, 0], [206, 0]], 
      "backward_source_id": -1
    }, 
    {
      "op": "null", 
      "param": {}, 
      "name": "stage3_unit5_bn1_gamma", 
      "inputs": [], 
      "backward_source_id": -1
    }, 
    {
      "op": "null", 
      "param": {}, 
      "name": "stage3_unit5_bn1_beta", 
      "inputs": [], 
      "backward_source_id": -1
    }, 
    {
      "op": "BatchNorm", 
      "param": {
        "eps": "2e-05", 
        "fix_gamma": "False", 
        "momentum": "0.9", 
        "use_global_stats": "False"
      }, 
      "name": "stage3_unit5_bn1", 
      "inputs": [[225, 0], [226, 0], [227, 0]], 
      "backward_source_id": -1
    }, 
    {
      "op": "Activation", 
      "param": {"act_type": "relu"}, 
      "name": "stage3_unit5_relu1", 
      "inputs": [[228, 0]], 
      "backward_source_id": -1
    }, 
    {
      "op": "null", 
      "param": {}, 
      "name": "stage3_unit5_conv1_weight", 
      "inputs": [], 
      "backward_source_id": -1
    }, 
    {
      "op": "Convolution", 
      "param": {
        "cudnn_off": "False", 
        "cudnn_tune": "limited_workspace", 
        "dilate": "(1,1)", 
        "kernel": "(1,1)", 
        "no_bias": "True", 
        "num_filter": "256", 
        "num_group": "1", 
        "pad": "(0,0)", 
        "stride": "(1,1)", 
        "workspace": "512"
      }, 
      "name": "stage3_unit5_conv1", 
      "inputs": [[229, 0], [230, 0]], 
      "backward_source_id": -1
    }, 
    {
      "op": "null", 
      "param": {}, 
      "name": "stage3_unit5_bn2_gamma", 
      "inputs": [], 
      "backward_source_id": -1
    }, 
    {
      "op": "null", 
      "param": {}, 
      "name": "stage3_unit5_bn2_beta", 
      "inputs": [], 
      "backward_source_id": -1
    }, 
    {
      "op": "BatchNorm", 
      "param": {
        "eps": "2e-05", 
        "fix_gamma": "False", 
        "momentum": "0.9", 
        "use_global_stats": "False"
      }, 
      "name": "stage3_unit5_bn2", 
      "inputs": [[231, 0], [232, 0], [233, 0]], 
      "backward_source_id": -1
    }, 
    {
      "op": "Activation", 
      "param": {"act_type": "relu"}, 
      "name": "stage3_unit5_relu2", 
      "inputs": [[234, 0]], 
      "backward_source_id": -1
    }, 
    {
      "op": "null", 
      "param": {}, 
      "name": "stage3_unit5_conv2_weight", 
      "inputs": [], 
      "backward_source_id": -1
    }, 
    {
      "op": "Convolution", 
      "param": {
        "cudnn_off": "False", 
        "cudnn_tune": "limited_workspace", 
        "dilate": "(1,1)", 
        "kernel": "(3,3)", 
        "no_bias": "True", 
        "num_filter": "256", 
        "num_group": "1", 
        "pad": "(1,1)", 
        "stride": "(1,1)", 
        "workspace": "512"
      }, 
      "name": "stage3_unit5_conv2", 
      "inputs": [[235, 0], [236, 0]], 
      "backward_source_id": -1
    }, 
    {
      "op": "null", 
      "param": {}, 
      "name": "stage3_unit5_bn3_gamma", 
      "inputs": [], 
      "backward_source_id": -1
    }, 
    {
      "op": "null", 
      "param": {}, 
      "name": "stage3_unit5_bn3_beta", 
      "inputs": [], 
      "backward_source_id": -1
    }, 
    {
      "op": "BatchNorm", 
      "param": {
        "eps": "2e-05", 
        "fix_gamma": "False", 
        "momentum": "0.9", 
        "use_global_stats": "False"
      }, 
      "name": "stage3_unit5_bn3", 
      "inputs": [[237, 0], [238, 0], [239, 0]], 
      "backward_source_id": -1
    }, 
    {
      "op": "Activation", 
      "param": {"act_type": "relu"}, 
      "name": "stage3_unit5_relu3", 
      "inputs": [[240, 0]], 
      "backward_source_id": -1
    }, 
    {
      "op": "null", 
      "param": {}, 
      "name": "stage3_unit5_conv3_weight", 
      "inputs": [], 
      "backward_source_id": -1
    }, 
    {
      "op": "Convolution", 
      "param": {
        "cudnn_off": "False", 
        "cudnn_tune": "limited_workspace", 
        "dilate": "(1,1)", 
        "kernel": "(1,1)", 
        "no_bias": "True", 
        "num_filter": "1024", 
        "num_group": "1", 
        "pad": "(0,0)", 
        "stride": "(1,1)", 
        "workspace": "512"
      }, 
      "name": "stage3_unit5_conv3", 
      "inputs": [[241, 0], [242, 0]], 
      "backward_source_id": -1
    }, 
    {
      "op": "_Plus", 
      "param": {}, 
      "name": "_plus11", 
      "inputs": [[243, 0], [225, 0]], 
      "backward_source_id": -1
    }, 
    {
      "op": "null", 
      "param": {}, 
      "name": "stage3_unit6_bn1_gamma", 
      "inputs": [], 
      "backward_source_id": -1
    }, 
    {
      "op": "null", 
      "param": {}, 
      "name": "stage3_unit6_bn1_beta", 
      "inputs": [], 
      "backward_source_id": -1
    }, 
    {
      "op": "BatchNorm", 
      "param": {
        "eps": "2e-05", 
        "fix_gamma": "False", 
        "momentum": "0.9", 
        "use_global_stats": "False"
      }, 
      "name": "stage3_unit6_bn1", 
      "inputs": [[244, 0], [245, 0], [246, 0]], 
      "backward_source_id": -1
    }, 
    {
      "op": "Activation", 
      "param": {"act_type": "relu"}, 
      "name": "stage3_unit6_relu1", 
      "inputs": [[247, 0]], 
      "backward_source_id": -1
    }, 
    {
      "op": "null", 
      "param": {}, 
      "name": "stage3_unit6_conv1_weight", 
      "inputs": [], 
      "backward_source_id": -1
    }, 
    {
      "op": "Convolution", 
      "param": {
        "cudnn_off": "False", 
        "cudnn_tune": "limited_workspace", 
        "dilate": "(1,1)", 
        "kernel": "(1,1)", 
        "no_bias": "True", 
        "num_filter": "256", 
        "num_group": "1", 
        "pad": "(0,0)", 
        "stride": "(1,1)", 
        "workspace": "512"
      }, 
      "name": "stage3_unit6_conv1", 
      "inputs": [[248, 0], [249, 0]], 
      "backward_source_id": -1
    }, 
    {
      "op": "null", 
      "param": {}, 
      "name": "stage3_unit6_bn2_gamma", 
      "inputs": [], 
      "backward_source_id": -1
    }, 
    {
      "op": "null", 
      "param": {}, 
      "name": "stage3_unit6_bn2_beta", 
      "inputs": [], 
      "backward_source_id": -1
    }, 
    {
      "op": "BatchNorm", 
      "param": {
        "eps": "2e-05", 
        "fix_gamma": "False", 
        "momentum": "0.9", 
        "use_global_stats": "False"
      }, 
      "name": "stage3_unit6_bn2", 
      "inputs": [[250, 0], [251, 0], [252, 0]], 
      "backward_source_id": -1
    }, 
    {
      "op": "Activation", 
      "param": {"act_type": "relu"}, 
      "name": "stage3_unit6_relu2", 
      "inputs": [[253, 0]], 
      "backward_source_id": -1
    }, 
    {
      "op": "null", 
      "param": {}, 
      "name": "stage3_unit6_conv2_weight", 
      "inputs": [], 
      "backward_source_id": -1
    }, 
    {
      "op": "Convolution", 
      "param": {
        "cudnn_off": "False", 
        "cudnn_tune": "limited_workspace", 
        "dilate": "(1,1)", 
        "kernel": "(3,3)", 
        "no_bias": "True", 
        "num_filter": "256", 
        "num_group": "1", 
        "pad": "(1,1)", 
        "stride": "(1,1)", 
        "workspace": "512"
      }, 
      "name": "stage3_unit6_conv2", 
      "inputs": [[254, 0], [255, 0]], 
      "backward_source_id": -1
    }, 
    {
      "op": "null", 
      "param": {}, 
      "name": "stage3_unit6_bn3_gamma", 
      "inputs": [], 
      "backward_source_id": -1
    }, 
    {
      "op": "null", 
      "param": {}, 
      "name": "stage3_unit6_bn3_beta", 
      "inputs": [], 
      "backward_source_id": -1
    }, 
    {
      "op": "BatchNorm", 
      "param": {
        "eps": "2e-05", 
        "fix_gamma": "False", 
        "momentum": "0.9", 
        "use_global_stats": "False"
      }, 
      "name": "stage3_unit6_bn3", 
      "inputs": [[256, 0], [257, 0], [258, 0]], 
      "backward_source_id": -1
    }, 
    {
      "op": "Activation", 
      "param": {"act_type": "relu"}, 
      "name": "stage3_unit6_relu3", 
      "inputs": [[259, 0]], 
      "backward_source_id": -1
    }, 
    {
      "op": "null", 
      "param": {}, 
      "name": "stage3_unit6_conv3_weight", 
      "inputs": [], 
      "backward_source_id": -1
    }, 
    {
      "op": "Convolution", 
      "param": {
        "cudnn_off": "False", 
        "cudnn_tune": "limited_workspace", 
        "dilate": "(1,1)", 
        "kernel": "(1,1)", 
        "no_bias": "True", 
        "num_filter": "1024", 
        "num_group": "1", 
        "pad": "(0,0)", 
        "stride": "(1,1)", 
        "workspace": "512"
      }, 
      "name": "stage3_unit6_conv3", 
      "inputs": [[260, 0], [261, 0]], 
      "backward_source_id": -1
    }, 
    {
      "op": "_Plus", 
      "param": {}, 
      "name": "_plus12", 
      "inputs": [[262, 0], [244, 0]], 
      "backward_source_id": -1
    }, 
    {
      "op": "null", 
      "param": {}, 
      "name": "stage3_unit7_bn1_gamma", 
      "inputs": [], 
      "backward_source_id": -1
    }, 
    {
      "op": "null", 
      "param": {}, 
      "name": "stage3_unit7_bn1_beta", 
      "inputs": [], 
      "backward_source_id": -1
    }, 
    {
      "op": "BatchNorm", 
      "param": {
        "eps": "2e-05", 
        "fix_gamma": "False", 
        "momentum": "0.9", 
        "use_global_stats": "False"
      }, 
      "name": "stage3_unit7_bn1", 
      "inputs": [[263, 0], [264, 0], [265, 0]], 
      "backward_source_id": -1
    }, 
    {
      "op": "Activation", 
      "param": {"act_type": "relu"}, 
      "name": "stage3_unit7_relu1", 
      "inputs": [[266, 0]], 
      "backward_source_id": -1
    }, 
    {
      "op": "null", 
      "param": {}, 
      "name": "stage3_unit7_conv1_weight", 
      "inputs": [], 
      "backward_source_id": -1
    }, 
    {
      "op": "Convolution", 
      "param": {
        "cudnn_off": "False", 
        "cudnn_tune": "limited_workspace", 
        "dilate": "(1,1)", 
        "kernel": "(1,1)", 
        "no_bias": "True", 
        "num_filter": "256", 
        "num_group": "1", 
        "pad": "(0,0)", 
        "stride": "(1,1)", 
        "workspace": "512"
      }, 
      "name": "stage3_unit7_conv1", 
      "inputs": [[267, 0], [268, 0]], 
      "backward_source_id": -1
    }, 
    {
      "op": "null", 
      "param": {}, 
      "name": "stage3_unit7_bn2_gamma", 
      "inputs": [], 
      "backward_source_id": -1
    }, 
    {
      "op": "null", 
      "param": {}, 
      "name": "stage3_unit7_bn2_beta", 
      "inputs": [], 
      "backward_source_id": -1
    }, 
    {
      "op": "BatchNorm", 
      "param": {
        "eps": "2e-05", 
        "fix_gamma": "False", 
        "momentum": "0.9", 
        "use_global_stats": "False"
      }, 
      "name": "stage3_unit7_bn2", 
      "inputs": [[269, 0], [270, 0], [271, 0]], 
      "backward_source_id": -1
    }, 
    {
      "op": "Activation", 
      "param": {"act_type": "relu"}, 
      "name": "stage3_unit7_relu2", 
      "inputs": [[272, 0]], 
      "backward_source_id": -1
    }, 
    {
      "op": "null", 
      "param": {}, 
      "name": "stage3_unit7_conv2_weight", 
      "inputs": [], 
      "backward_source_id": -1
    }, 
    {
      "op": "Convolution", 
      "param": {
        "cudnn_off": "False", 
        "cudnn_tune": "limited_workspace", 
        "dilate": "(1,1)", 
        "kernel": "(3,3)", 
        "no_bias": "True", 
        "num_filter": "256", 
        "num_group": "1", 
        "pad": "(1,1)", 
        "stride": "(1,1)", 
        "workspace": "512"
      }, 
      "name": "stage3_unit7_conv2", 
      "inputs": [[273, 0], [274, 0]], 
      "backward_source_id": -1
    }, 
    {
      "op": "null", 
      "param": {}, 
      "name": "stage3_unit7_bn3_gamma", 
      "inputs": [], 
      "backward_source_id": -1
    }, 
    {
      "op": "null", 
      "param": {}, 
      "name": "stage3_unit7_bn3_beta", 
      "inputs": [], 
      "backward_source_id": -1
    }, 
    {
      "op": "BatchNorm", 
      "param": {
        "eps": "2e-05", 
        "fix_gamma": "False", 
        "momentum": "0.9", 
        "use_global_stats": "False"
      }, 
      "name": "stage3_unit7_bn3", 
      "inputs": [[275, 0], [276, 0], [277, 0]], 
      "backward_source_id": -1
    }, 
    {
      "op": "Activation", 
      "param": {"act_type": "relu"}, 
      "name": "stage3_unit7_relu3", 
      "inputs": [[278, 0]], 
      "backward_source_id": -1
    }, 
    {
      "op": "null", 
      "param": {}, 
      "name": "stage3_unit7_conv3_weight", 
      "inputs": [], 
      "backward_source_id": -1
    }, 
    {
      "op": "Convolution", 
      "param": {
        "cudnn_off": "False", 
        "cudnn_tune": "limited_workspace", 
        "dilate": "(1,1)", 
        "kernel": "(1,1)", 
        "no_bias": "True", 
        "num_filter": "1024", 
        "num_group": "1", 
        "pad": "(0,0)", 
        "stride": "(1,1)", 
        "workspace": "512"
      }, 
      "name": "stage3_unit7_conv3", 
      "inputs": [[279, 0], [280, 0]], 
      "backward_source_id": -1
    }, 
    {
      "op": "_Plus", 
      "param": {}, 
      "name": "_plus13", 
      "inputs": [[281, 0], [263, 0]], 
      "backward_source_id": -1
    }, 
    {
      "op": "null", 
      "param": {}, 
      "name": "stage3_unit8_bn1_gamma", 
      "inputs": [], 
      "backward_source_id": -1
    }, 
    {
      "op": "null", 
      "param": {}, 
      "name": "stage3_unit8_bn1_beta", 
      "inputs": [], 
      "backward_source_id": -1
    }, 
    {
      "op": "BatchNorm", 
      "param": {
        "eps": "2e-05", 
        "fix_gamma": "False", 
        "momentum": "0.9", 
        "use_global_stats": "False"
      }, 
      "name": "stage3_unit8_bn1", 
      "inputs": [[282, 0], [283, 0], [284, 0]], 
      "backward_source_id": -1
    }, 
    {
      "op": "Activation", 
      "param": {"act_type": "relu"}, 
      "name": "stage3_unit8_relu1", 
      "inputs": [[285, 0]], 
      "backward_source_id": -1
    }, 
    {
      "op": "null", 
      "param": {}, 
      "name": "stage3_unit8_conv1_weight", 
      "inputs": [], 
      "backward_source_id": -1
    }, 
    {
      "op": "Convolution", 
      "param": {
        "cudnn_off": "False", 
        "cudnn_tune": "limited_workspace", 
        "dilate": "(1,1)", 
        "kernel": "(1,1)", 
        "no_bias": "True", 
        "num_filter": "256", 
        "num_group": "1", 
        "pad": "(0,0)", 
        "stride": "(1,1)", 
        "workspace": "512"
      }, 
      "name": "stage3_unit8_conv1", 
      "inputs": [[286, 0], [287, 0]], 
      "backward_source_id": -1
    }, 
    {
      "op": "null", 
      "param": {}, 
      "name": "stage3_unit8_bn2_gamma", 
      "inputs": [], 
      "backward_source_id": -1
    }, 
    {
      "op": "null", 
      "param": {}, 
      "name": "stage3_unit8_bn2_beta", 
      "inputs": [], 
      "backward_source_id": -1
    }, 
    {
      "op": "BatchNorm", 
      "param": {
        "eps": "2e-05", 
        "fix_gamma": "False", 
        "momentum": "0.9", 
        "use_global_stats": "False"
      }, 
      "name": "stage3_unit8_bn2", 
      "inputs": [[288, 0], [289, 0], [290, 0]], 
      "backward_source_id": -1
    }, 
    {
      "op": "Activation", 
      "param": {"act_type": "relu"}, 
      "name": "stage3_unit8_relu2", 
      "inputs": [[291, 0]], 
      "backward_source_id": -1
    }, 
    {
      "op": "null", 
      "param": {}, 
      "name": "stage3_unit8_conv2_weight", 
      "inputs": [], 
      "backward_source_id": -1
    }, 
    {
      "op": "Convolution", 
      "param": {
        "cudnn_off": "False", 
        "cudnn_tune": "limited_workspace", 
        "dilate": "(1,1)", 
        "kernel": "(3,3)", 
        "no_bias": "True", 
        "num_filter": "256", 
        "num_group": "1", 
        "pad": "(1,1)", 
        "stride": "(1,1)", 
        "workspace": "512"
      }, 
      "name": "stage3_unit8_conv2", 
      "inputs": [[292, 0], [293, 0]], 
      "backward_source_id": -1
    }, 
    {
      "op": "null", 
      "param": {}, 
      "name": "stage3_unit8_bn3_gamma", 
      "inputs": [], 
      "backward_source_id": -1
    }, 
    {
      "op": "null", 
      "param": {}, 
      "name": "stage3_unit8_bn3_beta", 
      "inputs": [], 
      "backward_source_id": -1
    }, 
    {
      "op": "BatchNorm", 
      "param": {
        "eps": "2e-05", 
        "fix_gamma": "False", 
        "momentum": "0.9", 
        "use_global_stats": "False"
      }, 
      "name": "stage3_unit8_bn3", 
      "inputs": [[294, 0], [295, 0], [296, 0]], 
      "backward_source_id": -1
    }, 
    {
      "op": "Activation", 
      "param": {"act_type": "relu"}, 
      "name": "stage3_unit8_relu3", 
      "inputs": [[297, 0]], 
      "backward_source_id": -1
    }, 
    {
      "op": "null", 
      "param": {}, 
      "name": "stage3_unit8_conv3_weight", 
      "inputs": [], 
      "backward_source_id": -1
    }, 
    {
      "op": "Convolution", 
      "param": {
        "cudnn_off": "False", 
        "cudnn_tune": "limited_workspace", 
        "dilate": "(1,1)", 
        "kernel": "(1,1)", 
        "no_bias": "True", 
        "num_filter": "1024", 
        "num_group": "1", 
        "pad": "(0,0)", 
        "stride": "(1,1)", 
        "workspace": "512"
      }, 
      "name": "stage3_unit8_conv3", 
      "inputs": [[298, 0], [299, 0]], 
      "backward_source_id": -1
    }, 
    {
      "op": "_Plus", 
      "param": {}, 
      "name": "_plus14", 
      "inputs": [[300, 0], [282, 0]], 
      "backward_source_id": -1
    }, 
    {
      "op": "null", 
      "param": {}, 
      "name": "stage3_unit9_bn1_gamma", 
      "inputs": [], 
      "backward_source_id": -1
    }, 
    {
      "op": "null", 
      "param": {}, 
      "name": "stage3_unit9_bn1_beta", 
      "inputs": [], 
      "backward_source_id": -1
    }, 
    {
      "op": "BatchNorm", 
      "param": {
        "eps": "2e-05", 
        "fix_gamma": "False", 
        "momentum": "0.9", 
        "use_global_stats": "False"
      }, 
      "name": "stage3_unit9_bn1", 
      "inputs": [[301, 0], [302, 0], [303, 0]], 
      "backward_source_id": -1
    }, 
    {
      "op": "Activation", 
      "param": {"act_type": "relu"}, 
      "name": "stage3_unit9_relu1", 
      "inputs": [[304, 0]], 
      "backward_source_id": -1
    }, 
    {
      "op": "null", 
      "param": {}, 
      "name": "stage3_unit9_conv1_weight", 
      "inputs": [], 
      "backward_source_id": -1
    }, 
    {
      "op": "Convolution", 
      "param": {
        "cudnn_off": "False", 
        "cudnn_tune": "limited_workspace", 
        "dilate": "(1,1)", 
        "kernel": "(1,1)", 
        "no_bias": "True", 
        "num_filter": "256", 
        "num_group": "1", 
        "pad": "(0,0)", 
        "stride": "(1,1)", 
        "workspace": "512"
      }, 
      "name": "stage3_unit9_conv1", 
      "inputs": [[305, 0], [306, 0]], 
      "backward_source_id": -1
    }, 
    {
      "op": "null", 
      "param": {}, 
      "name": "stage3_unit9_bn2_gamma", 
      "inputs": [], 
      "backward_source_id": -1
    }, 
    {
      "op": "null", 
      "param": {}, 
      "name": "stage3_unit9_bn2_beta", 
      "inputs": [], 
      "backward_source_id": -1
    }, 
    {
      "op": "BatchNorm", 
      "param": {
        "eps": "2e-05", 
        "fix_gamma": "False", 
        "momentum": "0.9", 
        "use_global_stats": "False"
      }, 
      "name": "stage3_unit9_bn2", 
      "inputs": [[307, 0], [308, 0], [309, 0]], 
      "backward_source_id": -1
    }, 
    {
      "op": "Activation", 
      "param": {"act_type": "relu"}, 
      "name": "stage3_unit9_relu2", 
      "inputs": [[310, 0]], 
      "backward_source_id": -1
    }, 
    {
      "op": "null", 
      "param": {}, 
      "name": "stage3_unit9_conv2_weight", 
      "inputs": [], 
      "backward_source_id": -1
    }, 
    {
      "op": "Convolution", 
      "param": {
        "cudnn_off": "False", 
        "cudnn_tune": "limited_workspace", 
        "dilate": "(1,1)", 
        "kernel": "(3,3)", 
        "no_bias": "True", 
        "num_filter": "256", 
        "num_group": "1", 
        "pad": "(1,1)", 
        "stride": "(1,1)", 
        "workspace": "512"
      }, 
      "name": "stage3_unit9_conv2", 
      "inputs": [[311, 0], [312, 0]], 
      "backward_source_id": -1
    }, 
    {
      "op": "null", 
      "param": {}, 
      "name": "stage3_unit9_bn3_gamma", 
      "inputs": [], 
      "backward_source_id": -1
    }, 
    {
      "op": "null", 
      "param": {}, 
      "name": "stage3_unit9_bn3_beta", 
      "inputs": [], 
      "backward_source_id": -1
    }, 
    {
      "op": "BatchNorm", 
      "param": {
        "eps": "2e-05", 
        "fix_gamma": "False", 
        "momentum": "0.9", 
        "use_global_stats": "False"
      }, 
      "name": "stage3_unit9_bn3", 
      "inputs": [[313, 0], [314, 0], [315, 0]], 
      "backward_source_id": -1
    }, 
    {
      "op": "Activation", 
      "param": {"act_type": "relu"}, 
      "name": "stage3_unit9_relu3", 
      "inputs": [[316, 0]], 
      "backward_source_id": -1
    }, 
    {
      "op": "null", 
      "param": {}, 
      "name": "stage3_unit9_conv3_weight", 
      "inputs": [], 
      "backward_source_id": -1
    }, 
    {
      "op": "Convolution", 
      "param": {
        "cudnn_off": "False", 
        "cudnn_tune": "limited_workspace", 
        "dilate": "(1,1)", 
        "kernel": "(1,1)", 
        "no_bias": "True", 
        "num_filter": "1024", 
        "num_group": "1", 
        "pad": "(0,0)", 
        "stride": "(1,1)", 
        "workspace": "512"
      }, 
      "name": "stage3_unit9_conv3", 
      "inputs": [[317, 0], [318, 0]], 
      "backward_source_id": -1
    }, 
    {
      "op": "_Plus", 
      "param": {}, 
      "name": "_plus15", 
      "inputs": [[319, 0], [301, 0]], 
      "backward_source_id": -1
    }, 
    {
      "op": "null", 
      "param": {}, 
      "name": "stage3_unit10_bn1_gamma", 
      "inputs": [], 
      "backward_source_id": -1
    }, 
    {
      "op": "null", 
      "param": {}, 
      "name": "stage3_unit10_bn1_beta", 
      "inputs": [], 
      "backward_source_id": -1
    }, 
    {
      "op": "BatchNorm", 
      "param": {
        "eps": "2e-05", 
        "fix_gamma": "False", 
        "momentum": "0.9", 
        "use_global_stats": "False"
      }, 
      "name": "stage3_unit10_bn1", 
      "inputs": [[320, 0], [321, 0], [322, 0]], 
      "backward_source_id": -1
    }, 
    {
      "op": "Activation", 
      "param": {"act_type": "relu"}, 
      "name": "stage3_unit10_relu1", 
      "inputs": [[323, 0]], 
      "backward_source_id": -1
    }, 
    {
      "op": "null", 
      "param": {}, 
      "name": "stage3_unit10_conv1_weight", 
      "inputs": [], 
      "backward_source_id": -1
    }, 
    {
      "op": "Convolution", 
      "param": {
        "cudnn_off": "False", 
        "cudnn_tune": "limited_workspace", 
        "dilate": "(1,1)", 
        "kernel": "(1,1)", 
        "no_bias": "True", 
        "num_filter": "256", 
        "num_group": "1", 
        "pad": "(0,0)", 
        "stride": "(1,1)", 
        "workspace": "512"
      }, 
      "name": "stage3_unit10_conv1", 
      "inputs": [[324, 0], [325, 0]], 
      "backward_source_id": -1
    }, 
    {
      "op": "null", 
      "param": {}, 
      "name": "stage3_unit10_bn2_gamma", 
      "inputs": [], 
      "backward_source_id": -1
    }, 
    {
      "op": "null", 
      "param": {}, 
      "name": "stage3_unit10_bn2_beta", 
      "inputs": [], 
      "backward_source_id": -1
    }, 
    {
      "op": "BatchNorm", 
      "param": {
        "eps": "2e-05", 
        "fix_gamma": "False", 
        "momentum": "0.9", 
        "use_global_stats": "False"
      }, 
      "name": "stage3_unit10_bn2", 
      "inputs": [[326, 0], [327, 0], [328, 0]], 
      "backward_source_id": -1
    }, 
    {
      "op": "Activation", 
      "param": {"act_type": "relu"}, 
      "name": "stage3_unit10_relu2", 
      "inputs": [[329, 0]], 
      "backward_source_id": -1
    }, 
    {
      "op": "null", 
      "param": {}, 
      "name": "stage3_unit10_conv2_weight", 
      "inputs": [], 
      "backward_source_id": -1
    }, 
    {
      "op": "Convolution", 
      "param": {
        "cudnn_off": "False", 
        "cudnn_tune": "limited_workspace", 
        "dilate": "(1,1)", 
        "kernel": "(3,3)", 
        "no_bias": "True", 
        "num_filter": "256", 
        "num_group": "1", 
        "pad": "(1,1)", 
        "stride": "(1,1)", 
        "workspace": "512"
      }, 
      "name": "stage3_unit10_conv2", 
      "inputs": [[330, 0], [331, 0]], 
      "backward_source_id": -1
    }, 
    {
      "op": "null", 
      "param": {}, 
      "name": "stage3_unit10_bn3_gamma", 
      "inputs": [], 
      "backward_source_id": -1
    }, 
    {
      "op": "null", 
      "param": {}, 
      "name": "stage3_unit10_bn3_beta", 
      "inputs": [], 
      "backward_source_id": -1
    }, 
    {
      "op": "BatchNorm", 
      "param": {
        "eps": "2e-05", 
        "fix_gamma": "False", 
        "momentum": "0.9", 
        "use_global_stats": "False"
      }, 
      "name": "stage3_unit10_bn3", 
      "inputs": [[332, 0], [333, 0], [334, 0]], 
      "backward_source_id": -1
    }, 
    {
      "op": "Activation", 
      "param": {"act_type": "relu"}, 
      "name": "stage3_unit10_relu3", 
      "inputs": [[335, 0]], 
      "backward_source_id": -1
    }, 
    {
      "op": "null", 
      "param": {}, 
      "name": "stage3_unit10_conv3_weight", 
      "inputs": [], 
      "backward_source_id": -1
    }, 
    {
      "op": "Convolution", 
      "param": {
        "cudnn_off": "False", 
        "cudnn_tune": "limited_workspace", 
        "dilate": "(1,1)", 
        "kernel": "(1,1)", 
        "no_bias": "True", 
        "num_filter": "1024", 
        "num_group": "1", 
        "pad": "(0,0)", 
        "stride": "(1,1)", 
        "workspace": "512"
      }, 
      "name": "stage3_unit10_conv3", 
      "inputs": [[336, 0], [337, 0]], 
      "backward_source_id": -1
    }, 
    {
      "op": "_Plus", 
      "param": {}, 
      "name": "_plus16", 
      "inputs": [[338, 0], [320, 0]], 
      "backward_source_id": -1
    }, 
    {
      "op": "null", 
      "param": {}, 
      "name": "stage3_unit11_bn1_gamma", 
      "inputs": [], 
      "backward_source_id": -1
    }, 
    {
      "op": "null", 
      "param": {}, 
      "name": "stage3_unit11_bn1_beta", 
      "inputs": [], 
      "backward_source_id": -1
    }, 
    {
      "op": "BatchNorm", 
      "param": {
        "eps": "2e-05", 
        "fix_gamma": "False", 
        "momentum": "0.9", 
        "use_global_stats": "False"
      }, 
      "name": "stage3_unit11_bn1", 
      "inputs": [[339, 0], [340, 0], [341, 0]], 
      "backward_source_id": -1
    }, 
    {
      "op": "Activation", 
      "param": {"act_type": "relu"}, 
      "name": "stage3_unit11_relu1", 
      "inputs": [[342, 0]], 
      "backward_source_id": -1
    }, 
    {
      "op": "null", 
      "param": {}, 
      "name": "stage3_unit11_conv1_weight", 
      "inputs": [], 
      "backward_source_id": -1
    }, 
    {
      "op": "Convolution", 
      "param": {
        "cudnn_off": "False", 
        "cudnn_tune": "limited_workspace", 
        "dilate": "(1,1)", 
        "kernel": "(1,1)", 
        "no_bias": "True", 
        "num_filter": "256", 
        "num_group": "1", 
        "pad": "(0,0)", 
        "stride": "(1,1)", 
        "workspace": "512"
      }, 
      "name": "stage3_unit11_conv1", 
      "inputs": [[343, 0], [344, 0]], 
      "backward_source_id": -1
    }, 
    {
      "op": "null", 
      "param": {}, 
      "name": "stage3_unit11_bn2_gamma", 
      "inputs": [], 
      "backward_source_id": -1
    }, 
    {
      "op": "null", 
      "param": {}, 
      "name": "stage3_unit11_bn2_beta", 
      "inputs": [], 
      "backward_source_id": -1
    }, 
    {
      "op": "BatchNorm", 
      "param": {
        "eps": "2e-05", 
        "fix_gamma": "False", 
        "momentum": "0.9", 
        "use_global_stats": "False"
      }, 
      "name": "stage3_unit11_bn2", 
      "inputs": [[345, 0], [346, 0], [347, 0]], 
      "backward_source_id": -1
    }, 
    {
      "op": "Activation", 
      "param": {"act_type": "relu"}, 
      "name": "stage3_unit11_relu2", 
      "inputs": [[348, 0]], 
      "backward_source_id": -1
    }, 
    {
      "op": "null", 
      "param": {}, 
      "name": "stage3_unit11_conv2_weight", 
      "inputs": [], 
      "backward_source_id": -1
    }, 
    {
      "op": "Convolution", 
      "param": {
        "cudnn_off": "False", 
        "cudnn_tune": "limited_workspace", 
        "dilate": "(1,1)", 
        "kernel": "(3,3)", 
        "no_bias": "True", 
        "num_filter": "256", 
        "num_group": "1", 
        "pad": "(1,1)", 
        "stride": "(1,1)", 
        "workspace": "512"
      }, 
      "name": "stage3_unit11_conv2", 
      "inputs": [[349, 0], [350, 0]], 
      "backward_source_id": -1
    }, 
    {
      "op": "null", 
      "param": {}, 
      "name": "stage3_unit11_bn3_gamma", 
      "inputs": [], 
      "backward_source_id": -1
    }, 
    {
      "op": "null", 
      "param": {}, 
      "name": "stage3_unit11_bn3_beta", 
      "inputs": [], 
      "backward_source_id": -1
    }, 
    {
      "op": "BatchNorm", 
      "param": {
        "eps": "2e-05", 
        "fix_gamma": "False", 
        "momentum": "0.9", 
        "use_global_stats": "False"
      }, 
      "name": "stage3_unit11_bn3", 
      "inputs": [[351, 0], [352, 0], [353, 0]], 
      "backward_source_id": -1
    }, 
    {
      "op": "Activation", 
      "param": {"act_type": "relu"}, 
      "name": "stage3_unit11_relu3", 
      "inputs": [[354, 0]], 
      "backward_source_id": -1
    }, 
    {
      "op": "null", 
      "param": {}, 
      "name": "stage3_unit11_conv3_weight", 
      "inputs": [], 
      "backward_source_id": -1
    }, 
    {
      "op": "Convolution", 
      "param": {
        "cudnn_off": "False", 
        "cudnn_tune": "limited_workspace", 
        "dilate": "(1,1)", 
        "kernel": "(1,1)", 
        "no_bias": "True", 
        "num_filter": "1024", 
        "num_group": "1", 
        "pad": "(0,0)", 
        "stride": "(1,1)", 
        "workspace": "512"
      }, 
      "name": "stage3_unit11_conv3", 
      "inputs": [[355, 0], [356, 0]], 
      "backward_source_id": -1
    }, 
    {
      "op": "_Plus", 
      "param": {}, 
      "name": "_plus17", 
      "inputs": [[357, 0], [339, 0]], 
      "backward_source_id": -1
    }, 
    {
      "op": "null", 
      "param": {}, 
      "name": "stage3_unit12_bn1_gamma", 
      "inputs": [], 
      "backward_source_id": -1
    }, 
    {
      "op": "null", 
      "param": {}, 
      "name": "stage3_unit12_bn1_beta", 
      "inputs": [], 
      "backward_source_id": -1
    }, 
    {
      "op": "BatchNorm", 
      "param": {
        "eps": "2e-05", 
        "fix_gamma": "False", 
        "momentum": "0.9", 
        "use_global_stats": "False"
      }, 
      "name": "stage3_unit12_bn1", 
      "inputs": [[358, 0], [359, 0], [360, 0]], 
      "backward_source_id": -1
    }, 
    {
      "op": "Activation", 
      "param": {"act_type": "relu"}, 
      "name": "stage3_unit12_relu1", 
      "inputs": [[361, 0]], 
      "backward_source_id": -1
    }, 
    {
      "op": "null", 
      "param": {}, 
      "name": "stage3_unit12_conv1_weight", 
      "inputs": [], 
      "backward_source_id": -1
    }, 
    {
      "op": "Convolution", 
      "param": {
        "cudnn_off": "False", 
        "cudnn_tune": "limited_workspace", 
        "dilate": "(1,1)", 
        "kernel": "(1,1)", 
        "no_bias": "True", 
        "num_filter": "256", 
        "num_group": "1", 
        "pad": "(0,0)", 
        "stride": "(1,1)", 
        "workspace": "512"
      }, 
      "name": "stage3_unit12_conv1", 
      "inputs": [[362, 0], [363, 0]], 
      "backward_source_id": -1
    }, 
    {
      "op": "null", 
      "param": {}, 
      "name": "stage3_unit12_bn2_gamma", 
      "inputs": [], 
      "backward_source_id": -1
    }, 
    {
      "op": "null", 
      "param": {}, 
      "name": "stage3_unit12_bn2_beta", 
      "inputs": [], 
      "backward_source_id": -1
    }, 
    {
      "op": "BatchNorm", 
      "param": {
        "eps": "2e-05", 
        "fix_gamma": "False", 
        "momentum": "0.9", 
        "use_global_stats": "False"
      }, 
      "name": "stage3_unit12_bn2", 
      "inputs": [[364, 0], [365, 0], [366, 0]], 
      "backward_source_id": -1
    }, 
    {
      "op": "Activation", 
      "param": {"act_type": "relu"}, 
      "name": "stage3_unit12_relu2", 
      "inputs": [[367, 0]], 
      "backward_source_id": -1
    }, 
    {
      "op": "null", 
      "param": {}, 
      "name": "stage3_unit12_conv2_weight", 
      "inputs": [], 
      "backward_source_id": -1
    }, 
    {
      "op": "Convolution", 
      "param": {
        "cudnn_off": "False", 
        "cudnn_tune": "limited_workspace", 
        "dilate": "(1,1)", 
        "kernel": "(3,3)", 
        "no_bias": "True", 
        "num_filter": "256", 
        "num_group": "1", 
        "pad": "(1,1)", 
        "stride": "(1,1)", 
        "workspace": "512"
      }, 
      "name": "stage3_unit12_conv2", 
      "inputs": [[368, 0], [369, 0]], 
      "backward_source_id": -1
    }, 
    {
      "op": "null", 
      "param": {}, 
      "name": "stage3_unit12_bn3_gamma", 
      "inputs": [], 
      "backward_source_id": -1
    }, 
    {
      "op": "null", 
      "param": {}, 
      "name": "stage3_unit12_bn3_beta", 
      "inputs": [], 
      "backward_source_id": -1
    }, 
    {
      "op": "BatchNorm", 
      "param": {
        "eps": "2e-05", 
        "fix_gamma": "False", 
        "momentum": "0.9", 
        "use_global_stats": "False"
      }, 
      "name": "stage3_unit12_bn3", 
      "inputs": [[370, 0], [371, 0], [372, 0]], 
      "backward_source_id": -1
    }, 
    {
      "op": "Activation", 
      "param": {"act_type": "relu"}, 
      "name": "stage3_unit12_relu3", 
      "inputs": [[373, 0]], 
      "backward_source_id": -1
    }, 
    {
      "op": "null", 
      "param": {}, 
      "name": "stage3_unit12_conv3_weight", 
      "inputs": [], 
      "backward_source_id": -1
    }, 
    {
      "op": "Convolution", 
      "param": {
        "cudnn_off": "False", 
        "cudnn_tune": "limited_workspace", 
        "dilate": "(1,1)", 
        "kernel": "(1,1)", 
        "no_bias": "True", 
        "num_filter": "1024", 
        "num_group": "1", 
        "pad": "(0,0)", 
        "stride": "(1,1)", 
        "workspace": "512"
      }, 
      "name": "stage3_unit12_conv3", 
      "inputs": [[374, 0], [375, 0]], 
      "backward_source_id": -1
    }, 
    {
      "op": "_Plus", 
      "param": {}, 
      "name": "_plus18", 
      "inputs": [[376, 0], [358, 0]], 
      "backward_source_id": -1
    }, 
    {
      "op": "null", 
      "param": {}, 
      "name": "stage3_unit13_bn1_gamma", 
      "inputs": [], 
      "backward_source_id": -1
    }, 
    {
      "op": "null", 
      "param": {}, 
      "name": "stage3_unit13_bn1_beta", 
      "inputs": [], 
      "backward_source_id": -1
    }, 
    {
      "op": "BatchNorm", 
      "param": {
        "eps": "2e-05", 
        "fix_gamma": "False", 
        "momentum": "0.9", 
        "use_global_stats": "False"
      }, 
      "name": "stage3_unit13_bn1", 
      "inputs": [[377, 0], [378, 0], [379, 0]], 
      "backward_source_id": -1
    }, 
    {
      "op": "Activation", 
      "param": {"act_type": "relu"}, 
      "name": "stage3_unit13_relu1", 
      "inputs": [[380, 0]], 
      "backward_source_id": -1
    }, 
    {
      "op": "null", 
      "param": {}, 
      "name": "stage3_unit13_conv1_weight", 
      "inputs": [], 
      "backward_source_id": -1
    }, 
    {
      "op": "Convolution", 
      "param": {
        "cudnn_off": "False", 
        "cudnn_tune": "limited_workspace", 
        "dilate": "(1,1)", 
        "kernel": "(1,1)", 
        "no_bias": "True", 
        "num_filter": "256", 
        "num_group": "1", 
        "pad": "(0,0)", 
        "stride": "(1,1)", 
        "workspace": "512"
      }, 
      "name": "stage3_unit13_conv1", 
      "inputs": [[381, 0], [382, 0]], 
      "backward_source_id": -1
    }, 
    {
      "op": "null", 
      "param": {}, 
      "name": "stage3_unit13_bn2_gamma", 
      "inputs": [], 
      "backward_source_id": -1
    }, 
    {
      "op": "null", 
      "param": {}, 
      "name": "stage3_unit13_bn2_beta", 
      "inputs": [], 
      "backward_source_id": -1
    }, 
    {
      "op": "BatchNorm", 
      "param": {
        "eps": "2e-05", 
        "fix_gamma": "False", 
        "momentum": "0.9", 
        "use_global_stats": "False"
      }, 
      "name": "stage3_unit13_bn2", 
      "inputs": [[383, 0], [384, 0], [385, 0]], 
      "backward_source_id": -1
    }, 
    {
      "op": "Activation", 
      "param": {"act_type": "relu"}, 
      "name": "stage3_unit13_relu2", 
      "inputs": [[386, 0]], 
      "backward_source_id": -1
    }, 
    {
      "op": "null", 
      "param": {}, 
      "name": "stage3_unit13_conv2_weight", 
      "inputs": [], 
      "backward_source_id": -1
    }, 
    {
      "op": "Convolution", 
      "param": {
        "cudnn_off": "False", 
        "cudnn_tune": "limited_workspace", 
        "dilate": "(1,1)", 
        "kernel": "(3,3)", 
        "no_bias": "True", 
        "num_filter": "256", 
        "num_group": "1", 
        "pad": "(1,1)", 
        "stride": "(1,1)", 
        "workspace": "512"
      }, 
      "name": "stage3_unit13_conv2", 
      "inputs": [[387, 0], [388, 0]], 
      "backward_source_id": -1
    }, 
    {
      "op": "null", 
      "param": {}, 
      "name": "stage3_unit13_bn3_gamma", 
      "inputs": [], 
      "backward_source_id": -1
    }, 
    {
      "op": "null", 
      "param": {}, 
      "name": "stage3_unit13_bn3_beta", 
      "inputs": [], 
      "backward_source_id": -1
    }, 
    {
      "op": "BatchNorm", 
      "param": {
        "eps": "2e-05", 
        "fix_gamma": "False", 
        "momentum": "0.9", 
        "use_global_stats": "False"
      }, 
      "name": "stage3_unit13_bn3", 
      "inputs": [[389, 0], [390, 0], [391, 0]], 
      "backward_source_id": -1
    }, 
    {
      "op": "Activation", 
      "param": {"act_type": "relu"}, 
      "name": "stage3_unit13_relu3", 
      "inputs": [[392, 0]], 
      "backward_source_id": -1
    }, 
    {
      "op": "null", 
      "param": {}, 
      "name": "stage3_unit13_conv3_weight", 
      "inputs": [], 
      "backward_source_id": -1
    }, 
    {
      "op": "Convolution", 
      "param": {
        "cudnn_off": "False", 
        "cudnn_tune": "limited_workspace", 
        "dilate": "(1,1)", 
        "kernel": "(1,1)", 
        "no_bias": "True", 
        "num_filter": "1024", 
        "num_group": "1", 
        "pad": "(0,0)", 
        "stride": "(1,1)", 
        "workspace": "512"
      }, 
      "name": "stage3_unit13_conv3", 
      "inputs": [[393, 0], [394, 0]], 
      "backward_source_id": -1
    }, 
    {
      "op": "_Plus", 
      "param": {}, 
      "name": "_plus19", 
      "inputs": [[395, 0], [377, 0]], 
      "backward_source_id": -1
    }, 
    {
      "op": "null", 
      "param": {}, 
      "name": "stage3_unit14_bn1_gamma", 
      "inputs": [], 
      "backward_source_id": -1
    }, 
    {
      "op": "null", 
      "param": {}, 
      "name": "stage3_unit14_bn1_beta", 
      "inputs": [], 
      "backward_source_id": -1
    }, 
    {
      "op": "BatchNorm", 
      "param": {
        "eps": "2e-05", 
        "fix_gamma": "False", 
        "momentum": "0.9", 
        "use_global_stats": "False"
      }, 
      "name": "stage3_unit14_bn1", 
      "inputs": [[396, 0], [397, 0], [398, 0]], 
      "backward_source_id": -1
    }, 
    {
      "op": "Activation", 
      "param": {"act_type": "relu"}, 
      "name": "stage3_unit14_relu1", 
      "inputs": [[399, 0]], 
      "backward_source_id": -1
    }, 
    {
      "op": "null", 
      "param": {}, 
      "name": "stage3_unit14_conv1_weight", 
      "inputs": [], 
      "backward_source_id": -1
    }, 
    {
      "op": "Convolution", 
      "param": {
        "cudnn_off": "False", 
        "cudnn_tune": "limited_workspace", 
        "dilate": "(1,1)", 
        "kernel": "(1,1)", 
        "no_bias": "True", 
        "num_filter": "256", 
        "num_group": "1", 
        "pad": "(0,0)", 
        "stride": "(1,1)", 
        "workspace": "512"
      }, 
      "name": "stage3_unit14_conv1", 
      "inputs": [[400, 0], [401, 0]], 
      "backward_source_id": -1
    }, 
    {
      "op": "null", 
      "param": {}, 
      "name": "stage3_unit14_bn2_gamma", 
      "inputs": [], 
      "backward_source_id": -1
    }, 
    {
      "op": "null", 
      "param": {}, 
      "name": "stage3_unit14_bn2_beta", 
      "inputs": [], 
      "backward_source_id": -1
    }, 
    {
      "op": "BatchNorm", 
      "param": {
        "eps": "2e-05", 
        "fix_gamma": "False", 
        "momentum": "0.9", 
        "use_global_stats": "False"
      }, 
      "name": "stage3_unit14_bn2", 
      "inputs": [[402, 0], [403, 0], [404, 0]], 
      "backward_source_id": -1
    }, 
    {
      "op": "Activation", 
      "param": {"act_type": "relu"}, 
      "name": "stage3_unit14_relu2", 
      "inputs": [[405, 0]], 
      "backward_source_id": -1
    }, 
    {
      "op": "null", 
      "param": {}, 
      "name": "stage3_unit14_conv2_weight", 
      "inputs": [], 
      "backward_source_id": -1
    }, 
    {
      "op": "Convolution", 
      "param": {
        "cudnn_off": "False", 
        "cudnn_tune": "limited_workspace", 
        "dilate": "(1,1)", 
        "kernel": "(3,3)", 
        "no_bias": "True", 
        "num_filter": "256", 
        "num_group": "1", 
        "pad": "(1,1)", 
        "stride": "(1,1)", 
        "workspace": "512"
      }, 
      "name": "stage3_unit14_conv2", 
      "inputs": [[406, 0], [407, 0]], 
      "backward_source_id": -1
    }, 
    {
      "op": "null", 
      "param": {}, 
      "name": "stage3_unit14_bn3_gamma", 
      "inputs": [], 
      "backward_source_id": -1
    }, 
    {
      "op": "null", 
      "param": {}, 
      "name": "stage3_unit14_bn3_beta", 
      "inputs": [], 
      "backward_source_id": -1
    }, 
    {
      "op": "BatchNorm", 
      "param": {
        "eps": "2e-05", 
        "fix_gamma": "False", 
        "momentum": "0.9", 
        "use_global_stats": "False"
      }, 
      "name": "stage3_unit14_bn3", 
      "inputs": [[408, 0], [409, 0], [410, 0]], 
      "backward_source_id": -1
    }, 
    {
      "op": "Activation", 
      "param": {"act_type": "relu"}, 
      "name": "stage3_unit14_relu3", 
      "inputs": [[411, 0]], 
      "backward_source_id": -1
    }, 
    {
      "op": "null", 
      "param": {}, 
      "name": "stage3_unit14_conv3_weight", 
      "inputs": [], 
      "backward_source_id": -1
    }, 
    {
      "op": "Convolution", 
      "param": {
        "cudnn_off": "False", 
        "cudnn_tune": "limited_workspace", 
        "dilate": "(1,1)", 
        "kernel": "(1,1)", 
        "no_bias": "True", 
        "num_filter": "1024", 
        "num_group": "1", 
        "pad": "(0,0)", 
        "stride": "(1,1)", 
        "workspace": "512"
      }, 
      "name": "stage3_unit14_conv3", 
      "inputs": [[412, 0], [413, 0]], 
      "backward_source_id": -1
    }, 
    {
      "op": "_Plus", 
      "param": {}, 
      "name": "_plus20", 
      "inputs": [[414, 0], [396, 0]], 
      "backward_source_id": -1
    }, 
    {
      "op": "null", 
      "param": {}, 
      "name": "stage3_unit15_bn1_gamma", 
      "inputs": [], 
      "backward_source_id": -1
    }, 
    {
      "op": "null", 
      "param": {}, 
      "name": "stage3_unit15_bn1_beta", 
      "inputs": [], 
      "backward_source_id": -1
    }, 
    {
      "op": "BatchNorm", 
      "param": {
        "eps": "2e-05", 
        "fix_gamma": "False", 
        "momentum": "0.9", 
        "use_global_stats": "False"
      }, 
      "name": "stage3_unit15_bn1", 
      "inputs": [[415, 0], [416, 0], [417, 0]], 
      "backward_source_id": -1
    }, 
    {
      "op": "Activation", 
      "param": {"act_type": "relu"}, 
      "name": "stage3_unit15_relu1", 
      "inputs": [[418, 0]], 
      "backward_source_id": -1
    }, 
    {
      "op": "null", 
      "param": {}, 
      "name": "stage3_unit15_conv1_weight", 
      "inputs": [], 
      "backward_source_id": -1
    }, 
    {
      "op": "Convolution", 
      "param": {
        "cudnn_off": "False", 
        "cudnn_tune": "limited_workspace", 
        "dilate": "(1,1)", 
        "kernel": "(1,1)", 
        "no_bias": "True", 
        "num_filter": "256", 
        "num_group": "1", 
        "pad": "(0,0)", 
        "stride": "(1,1)", 
        "workspace": "512"
      }, 
      "name": "stage3_unit15_conv1", 
      "inputs": [[419, 0], [420, 0]], 
      "backward_source_id": -1
    }, 
    {
      "op": "null", 
      "param": {}, 
      "name": "stage3_unit15_bn2_gamma", 
      "inputs": [], 
      "backward_source_id": -1
    }, 
    {
      "op": "null", 
      "param": {}, 
      "name": "stage3_unit15_bn2_beta", 
      "inputs": [], 
      "backward_source_id": -1
    }, 
    {
      "op": "BatchNorm", 
      "param": {
        "eps": "2e-05", 
        "fix_gamma": "False", 
        "momentum": "0.9", 
        "use_global_stats": "False"
      }, 
      "name": "stage3_unit15_bn2", 
      "inputs": [[421, 0], [422, 0], [423, 0]], 
      "backward_source_id": -1
    }, 
    {
      "op": "Activation", 
      "param": {"act_type": "relu"}, 
      "name": "stage3_unit15_relu2", 
      "inputs": [[424, 0]], 
      "backward_source_id": -1
    }, 
    {
      "op": "null", 
      "param": {}, 
      "name": "stage3_unit15_conv2_weight", 
      "inputs": [], 
      "backward_source_id": -1
    }, 
    {
      "op": "Convolution", 
      "param": {
        "cudnn_off": "False", 
        "cudnn_tune": "limited_workspace", 
        "dilate": "(1,1)", 
        "kernel": "(3,3)", 
        "no_bias": "True", 
        "num_filter": "256", 
        "num_group": "1", 
        "pad": "(1,1)", 
        "stride": "(1,1)", 
        "workspace": "512"
      }, 
      "name": "stage3_unit15_conv2", 
      "inputs": [[425, 0], [426, 0]], 
      "backward_source_id": -1
    }, 
    {
      "op": "null", 
      "param": {}, 
      "name": "stage3_unit15_bn3_gamma", 
      "inputs": [], 
      "backward_source_id": -1
    }, 
    {
      "op": "null", 
      "param": {}, 
      "name": "stage3_unit15_bn3_beta", 
      "inputs": [], 
      "backward_source_id": -1
    }, 
    {
      "op": "BatchNorm", 
      "param": {
        "eps": "2e-05", 
        "fix_gamma": "False", 
        "momentum": "0.9", 
        "use_global_stats": "False"
      }, 
      "name": "stage3_unit15_bn3", 
      "inputs": [[427, 0], [428, 0], [429, 0]], 
      "backward_source_id": -1
    }, 
    {
      "op": "Activation", 
      "param": {"act_type": "relu"}, 
      "name": "stage3_unit15_relu3", 
      "inputs": [[430, 0]], 
      "backward_source_id": -1
    }, 
    {
      "op": "null", 
      "param": {}, 
      "name": "stage3_unit15_conv3_weight", 
      "inputs": [], 
      "backward_source_id": -1
    }, 
    {
      "op": "Convolution", 
      "param": {
        "cudnn_off": "False", 
        "cudnn_tune": "limited_workspace", 
        "dilate": "(1,1)", 
        "kernel": "(1,1)", 
        "no_bias": "True", 
        "num_filter": "1024", 
        "num_group": "1", 
        "pad": "(0,0)", 
        "stride": "(1,1)", 
        "workspace": "512"
      }, 
      "name": "stage3_unit15_conv3", 
      "inputs": [[431, 0], [432, 0]], 
      "backward_source_id": -1
    }, 
    {
      "op": "_Plus", 
      "param": {}, 
      "name": "_plus21", 
      "inputs": [[433, 0], [415, 0]], 
      "backward_source_id": -1
    }, 
    {
      "op": "null", 
      "param": {}, 
      "name": "stage3_unit16_bn1_gamma", 
      "inputs": [], 
      "backward_source_id": -1
    }, 
    {
      "op": "null", 
      "param": {}, 
      "name": "stage3_unit16_bn1_beta", 
      "inputs": [], 
      "backward_source_id": -1
    }, 
    {
      "op": "BatchNorm", 
      "param": {
        "eps": "2e-05", 
        "fix_gamma": "False", 
        "momentum": "0.9", 
        "use_global_stats": "False"
      }, 
      "name": "stage3_unit16_bn1", 
      "inputs": [[434, 0], [435, 0], [436, 0]], 
      "backward_source_id": -1
    }, 
    {
      "op": "Activation", 
      "param": {"act_type": "relu"}, 
      "name": "stage3_unit16_relu1", 
      "inputs": [[437, 0]], 
      "backward_source_id": -1
    }, 
    {
      "op": "null", 
      "param": {}, 
      "name": "stage3_unit16_conv1_weight", 
      "inputs": [], 
      "backward_source_id": -1
    }, 
    {
      "op": "Convolution", 
      "param": {
        "cudnn_off": "False", 
        "cudnn_tune": "limited_workspace", 
        "dilate": "(1,1)", 
        "kernel": "(1,1)", 
        "no_bias": "True", 
        "num_filter": "256", 
        "num_group": "1", 
        "pad": "(0,0)", 
        "stride": "(1,1)", 
        "workspace": "512"
      }, 
      "name": "stage3_unit16_conv1", 
      "inputs": [[438, 0], [439, 0]], 
      "backward_source_id": -1
    }, 
    {
      "op": "null", 
      "param": {}, 
      "name": "stage3_unit16_bn2_gamma", 
      "inputs": [], 
      "backward_source_id": -1
    }, 
    {
      "op": "null", 
      "param": {}, 
      "name": "stage3_unit16_bn2_beta", 
      "inputs": [], 
      "backward_source_id": -1
    }, 
    {
      "op": "BatchNorm", 
      "param": {
        "eps": "2e-05", 
        "fix_gamma": "False", 
        "momentum": "0.9", 
        "use_global_stats": "False"
      }, 
      "name": "stage3_unit16_bn2", 
      "inputs": [[440, 0], [441, 0], [442, 0]], 
      "backward_source_id": -1
    }, 
    {
      "op": "Activation", 
      "param": {"act_type": "relu"}, 
      "name": "stage3_unit16_relu2", 
      "inputs": [[443, 0]], 
      "backward_source_id": -1
    }, 
    {
      "op": "null", 
      "param": {}, 
      "name": "stage3_unit16_conv2_weight", 
      "inputs": [], 
      "backward_source_id": -1
    }, 
    {
      "op": "Convolution", 
      "param": {
        "cudnn_off": "False", 
        "cudnn_tune": "limited_workspace", 
        "dilate": "(1,1)", 
        "kernel": "(3,3)", 
        "no_bias": "True", 
        "num_filter": "256", 
        "num_group": "1", 
        "pad": "(1,1)", 
        "stride": "(1,1)", 
        "workspace": "512"
      }, 
      "name": "stage3_unit16_conv2", 
      "inputs": [[444, 0], [445, 0]], 
      "backward_source_id": -1
    }, 
    {
      "op": "null", 
      "param": {}, 
      "name": "stage3_unit16_bn3_gamma", 
      "inputs": [], 
      "backward_source_id": -1
    }, 
    {
      "op": "null", 
      "param": {}, 
      "name": "stage3_unit16_bn3_beta", 
      "inputs": [], 
      "backward_source_id": -1
    }, 
    {
      "op": "BatchNorm", 
      "param": {
        "eps": "2e-05", 
        "fix_gamma": "False", 
        "momentum": "0.9", 
        "use_global_stats": "False"
      }, 
      "name": "stage3_unit16_bn3", 
      "inputs": [[446, 0], [447, 0], [448, 0]], 
      "backward_source_id": -1
    }, 
    {
      "op": "Activation", 
      "param": {"act_type": "relu"}, 
      "name": "stage3_unit16_relu3", 
      "inputs": [[449, 0]], 
      "backward_source_id": -1
    }, 
    {
      "op": "null", 
      "param": {}, 
      "name": "stage3_unit16_conv3_weight", 
      "inputs": [], 
      "backward_source_id": -1
    }, 
    {
      "op": "Convolution", 
      "param": {
        "cudnn_off": "False", 
        "cudnn_tune": "limited_workspace", 
        "dilate": "(1,1)", 
        "kernel": "(1,1)", 
        "no_bias": "True", 
        "num_filter": "1024", 
        "num_group": "1", 
        "pad": "(0,0)", 
        "stride": "(1,1)", 
        "workspace": "512"
      }, 
      "name": "stage3_unit16_conv3", 
      "inputs": [[450, 0], [451, 0]], 
      "backward_source_id": -1
    }, 
    {
      "op": "_Plus", 
      "param": {}, 
      "name": "_plus22", 
      "inputs": [[452, 0], [434, 0]], 
      "backward_source_id": -1
    }, 
    {
      "op": "null", 
      "param": {}, 
      "name": "stage3_unit17_bn1_gamma", 
      "inputs": [], 
      "backward_source_id": -1
    }, 
    {
      "op": "null", 
      "param": {}, 
      "name": "stage3_unit17_bn1_beta", 
      "inputs": [], 
      "backward_source_id": -1
    }, 
    {
      "op": "BatchNorm", 
      "param": {
        "eps": "2e-05", 
        "fix_gamma": "False", 
        "momentum": "0.9", 
        "use_global_stats": "False"
      }, 
      "name": "stage3_unit17_bn1", 
      "inputs": [[453, 0], [454, 0], [455, 0]], 
      "backward_source_id": -1
    }, 
    {
      "op": "Activation", 
      "param": {"act_type": "relu"}, 
      "name": "stage3_unit17_relu1", 
      "inputs": [[456, 0]], 
      "backward_source_id": -1
    }, 
    {
      "op": "null", 
      "param": {}, 
      "name": "stage3_unit17_conv1_weight", 
      "inputs": [], 
      "backward_source_id": -1
    }, 
    {
      "op": "Convolution", 
      "param": {
        "cudnn_off": "False", 
        "cudnn_tune": "limited_workspace", 
        "dilate": "(1,1)", 
        "kernel": "(1,1)", 
        "no_bias": "True", 
        "num_filter": "256", 
        "num_group": "1", 
        "pad": "(0,0)", 
        "stride": "(1,1)", 
        "workspace": "512"
      }, 
      "name": "stage3_unit17_conv1", 
      "inputs": [[457, 0], [458, 0]], 
      "backward_source_id": -1
    }, 
    {
      "op": "null", 
      "param": {}, 
      "name": "stage3_unit17_bn2_gamma", 
      "inputs": [], 
      "backward_source_id": -1
    }, 
    {
      "op": "null", 
      "param": {}, 
      "name": "stage3_unit17_bn2_beta", 
      "inputs": [], 
      "backward_source_id": -1
    }, 
    {
      "op": "BatchNorm", 
      "param": {
        "eps": "2e-05", 
        "fix_gamma": "False", 
        "momentum": "0.9", 
        "use_global_stats": "False"
      }, 
      "name": "stage3_unit17_bn2", 
      "inputs": [[459, 0], [460, 0], [461, 0]], 
      "backward_source_id": -1
    }, 
    {
      "op": "Activation", 
      "param": {"act_type": "relu"}, 
      "name": "stage3_unit17_relu2", 
      "inputs": [[462, 0]], 
      "backward_source_id": -1
    }, 
    {
      "op": "null", 
      "param": {}, 
      "name": "stage3_unit17_conv2_weight", 
      "inputs": [], 
      "backward_source_id": -1
    }, 
    {
      "op": "Convolution", 
      "param": {
        "cudnn_off": "False", 
        "cudnn_tune": "limited_workspace", 
        "dilate": "(1,1)", 
        "kernel": "(3,3)", 
        "no_bias": "True", 
        "num_filter": "256", 
        "num_group": "1", 
        "pad": "(1,1)", 
        "stride": "(1,1)", 
        "workspace": "512"
      }, 
      "name": "stage3_unit17_conv2", 
      "inputs": [[463, 0], [464, 0]], 
      "backward_source_id": -1
    }, 
    {
      "op": "null", 
      "param": {}, 
      "name": "stage3_unit17_bn3_gamma", 
      "inputs": [], 
      "backward_source_id": -1
    }, 
    {
      "op": "null", 
      "param": {}, 
      "name": "stage3_unit17_bn3_beta", 
      "inputs": [], 
      "backward_source_id": -1
    }, 
    {
      "op": "BatchNorm", 
      "param": {
        "eps": "2e-05", 
        "fix_gamma": "False", 
        "momentum": "0.9", 
        "use_global_stats": "False"
      }, 
      "name": "stage3_unit17_bn3", 
      "inputs": [[465, 0], [466, 0], [467, 0]], 
      "backward_source_id": -1
    }, 
    {
      "op": "Activation", 
      "param": {"act_type": "relu"}, 
      "name": "stage3_unit17_relu3", 
      "inputs": [[468, 0]], 
      "backward_source_id": -1
    }, 
    {
      "op": "null", 
      "param": {}, 
      "name": "stage3_unit17_conv3_weight", 
      "inputs": [], 
      "backward_source_id": -1
    }, 
    {
      "op": "Convolution", 
      "param": {
        "cudnn_off": "False", 
        "cudnn_tune": "limited_workspace", 
        "dilate": "(1,1)", 
        "kernel": "(1,1)", 
        "no_bias": "True", 
        "num_filter": "1024", 
        "num_group": "1", 
        "pad": "(0,0)", 
        "stride": "(1,1)", 
        "workspace": "512"
      }, 
      "name": "stage3_unit17_conv3", 
      "inputs": [[469, 0], [470, 0]], 
      "backward_source_id": -1
    }, 
    {
      "op": "_Plus", 
      "param": {}, 
      "name": "_plus23", 
      "inputs": [[471, 0], [453, 0]], 
      "backward_source_id": -1
    }, 
    {
      "op": "null", 
      "param": {}, 
      "name": "stage3_unit18_bn1_gamma", 
      "inputs": [], 
      "backward_source_id": -1
    }, 
    {
      "op": "null", 
      "param": {}, 
      "name": "stage3_unit18_bn1_beta", 
      "inputs": [], 
      "backward_source_id": -1
    }, 
    {
      "op": "BatchNorm", 
      "param": {
        "eps": "2e-05", 
        "fix_gamma": "False", 
        "momentum": "0.9", 
        "use_global_stats": "False"
      }, 
      "name": "stage3_unit18_bn1", 
      "inputs": [[472, 0], [473, 0], [474, 0]], 
      "backward_source_id": -1
    }, 
    {
      "op": "Activation", 
      "param": {"act_type": "relu"}, 
      "name": "stage3_unit18_relu1", 
      "inputs": [[475, 0]], 
      "backward_source_id": -1
    }, 
    {
      "op": "null", 
      "param": {}, 
      "name": "stage3_unit18_conv1_weight", 
      "inputs": [], 
      "backward_source_id": -1
    }, 
    {
      "op": "Convolution", 
      "param": {
        "cudnn_off": "False", 
        "cudnn_tune": "limited_workspace", 
        "dilate": "(1,1)", 
        "kernel": "(1,1)", 
        "no_bias": "True", 
        "num_filter": "256", 
        "num_group": "1", 
        "pad": "(0,0)", 
        "stride": "(1,1)", 
        "workspace": "512"
      }, 
      "name": "stage3_unit18_conv1", 
      "inputs": [[476, 0], [477, 0]], 
      "backward_source_id": -1
    }, 
    {
      "op": "null", 
      "param": {}, 
      "name": "stage3_unit18_bn2_gamma", 
      "inputs": [], 
      "backward_source_id": -1
    }, 
    {
      "op": "null", 
      "param": {}, 
      "name": "stage3_unit18_bn2_beta", 
      "inputs": [], 
      "backward_source_id": -1
    }, 
    {
      "op": "BatchNorm", 
      "param": {
        "eps": "2e-05", 
        "fix_gamma": "False", 
        "momentum": "0.9", 
        "use_global_stats": "False"
      }, 
      "name": "stage3_unit18_bn2", 
      "inputs": [[478, 0], [479, 0], [480, 0]], 
      "backward_source_id": -1
    }, 
    {
      "op": "Activation", 
      "param": {"act_type": "relu"}, 
      "name": "stage3_unit18_relu2", 
      "inputs": [[481, 0]], 
      "backward_source_id": -1
    }, 
    {
      "op": "null", 
      "param": {}, 
      "name": "stage3_unit18_conv2_weight", 
      "inputs": [], 
      "backward_source_id": -1
    }, 
    {
      "op": "Convolution", 
      "param": {
        "cudnn_off": "False", 
        "cudnn_tune": "limited_workspace", 
        "dilate": "(1,1)", 
        "kernel": "(3,3)", 
        "no_bias": "True", 
        "num_filter": "256", 
        "num_group": "1", 
        "pad": "(1,1)", 
        "stride": "(1,1)", 
        "workspace": "512"
      }, 
      "name": "stage3_unit18_conv2", 
      "inputs": [[482, 0], [483, 0]], 
      "backward_source_id": -1
    }, 
    {
      "op": "null", 
      "param": {}, 
      "name": "stage3_unit18_bn3_gamma", 
      "inputs": [], 
      "backward_source_id": -1
    }, 
    {
      "op": "null", 
      "param": {}, 
      "name": "stage3_unit18_bn3_beta", 
      "inputs": [], 
      "backward_source_id": -1
    }, 
    {
      "op": "BatchNorm", 
      "param": {
        "eps": "2e-05", 
        "fix_gamma": "False", 
        "momentum": "0.9", 
        "use_global_stats": "False"
      }, 
      "name": "stage3_unit18_bn3", 
      "inputs": [[484, 0], [485, 0], [486, 0]], 
      "backward_source_id": -1
    }, 
    {
      "op": "Activation", 
      "param": {"act_type": "relu"}, 
      "name": "stage3_unit18_relu3", 
      "inputs": [[487, 0]], 
      "backward_source_id": -1
    }, 
    {
      "op": "null", 
      "param": {}, 
      "name": "stage3_unit18_conv3_weight", 
      "inputs": [], 
      "backward_source_id": -1
    }, 
    {
      "op": "Convolution", 
      "param": {
        "cudnn_off": "False", 
        "cudnn_tune": "limited_workspace", 
        "dilate": "(1,1)", 
        "kernel": "(1,1)", 
        "no_bias": "True", 
        "num_filter": "1024", 
        "num_group": "1", 
        "pad": "(0,0)", 
        "stride": "(1,1)", 
        "workspace": "512"
      }, 
      "name": "stage3_unit18_conv3", 
      "inputs": [[488, 0], [489, 0]], 
      "backward_source_id": -1
    }, 
    {
      "op": "_Plus", 
      "param": {}, 
      "name": "_plus24", 
      "inputs": [[490, 0], [472, 0]], 
      "backward_source_id": -1
    }, 
    {
      "op": "null", 
      "param": {}, 
      "name": "stage3_unit19_bn1_gamma", 
      "inputs": [], 
      "backward_source_id": -1
    }, 
    {
      "op": "null", 
      "param": {}, 
      "name": "stage3_unit19_bn1_beta", 
      "inputs": [], 
      "backward_source_id": -1
    }, 
    {
      "op": "BatchNorm", 
      "param": {
        "eps": "2e-05", 
        "fix_gamma": "False", 
        "momentum": "0.9", 
        "use_global_stats": "False"
      }, 
      "name": "stage3_unit19_bn1", 
      "inputs": [[491, 0], [492, 0], [493, 0]], 
      "backward_source_id": -1
    }, 
    {
      "op": "Activation", 
      "param": {"act_type": "relu"}, 
      "name": "stage3_unit19_relu1", 
      "inputs": [[494, 0]], 
      "backward_source_id": -1
    }, 
    {
      "op": "null", 
      "param": {}, 
      "name": "stage3_unit19_conv1_weight", 
      "inputs": [], 
      "backward_source_id": -1
    }, 
    {
      "op": "Convolution", 
      "param": {
        "cudnn_off": "False", 
        "cudnn_tune": "limited_workspace", 
        "dilate": "(1,1)", 
        "kernel": "(1,1)", 
        "no_bias": "True", 
        "num_filter": "256", 
        "num_group": "1", 
        "pad": "(0,0)", 
        "stride": "(1,1)", 
        "workspace": "512"
      }, 
      "name": "stage3_unit19_conv1", 
      "inputs": [[495, 0], [496, 0]], 
      "backward_source_id": -1
    }, 
    {
      "op": "null", 
      "param": {}, 
      "name": "stage3_unit19_bn2_gamma", 
      "inputs": [], 
      "backward_source_id": -1
    }, 
    {
      "op": "null", 
      "param": {}, 
      "name": "stage3_unit19_bn2_beta", 
      "inputs": [], 
      "backward_source_id": -1
    }, 
    {
      "op": "BatchNorm", 
      "param": {
        "eps": "2e-05", 
        "fix_gamma": "False", 
        "momentum": "0.9", 
        "use_global_stats": "False"
      }, 
      "name": "stage3_unit19_bn2", 
      "inputs": [[497, 0], [498, 0], [499, 0]], 
      "backward_source_id": -1
    }, 
    {
      "op": "Activation", 
      "param": {"act_type": "relu"}, 
      "name": "stage3_unit19_relu2", 
      "inputs": [[500, 0]], 
      "backward_source_id": -1
    }, 
    {
      "op": "null", 
      "param": {}, 
      "name": "stage3_unit19_conv2_weight", 
      "inputs": [], 
      "backward_source_id": -1
    }, 
    {
      "op": "Convolution", 
      "param": {
        "cudnn_off": "False", 
        "cudnn_tune": "limited_workspace", 
        "dilate": "(1,1)", 
        "kernel": "(3,3)", 
        "no_bias": "True", 
        "num_filter": "256", 
        "num_group": "1", 
        "pad": "(1,1)", 
        "stride": "(1,1)", 
        "workspace": "512"
      }, 
      "name": "stage3_unit19_conv2", 
      "inputs": [[501, 0], [502, 0]], 
      "backward_source_id": -1
    }, 
    {
      "op": "null", 
      "param": {}, 
      "name": "stage3_unit19_bn3_gamma", 
      "inputs": [], 
      "backward_source_id": -1
    }, 
    {
      "op": "null", 
      "param": {}, 
      "name": "stage3_unit19_bn3_beta", 
      "inputs": [], 
      "backward_source_id": -1
    }, 
    {
      "op": "BatchNorm", 
      "param": {
        "eps": "2e-05", 
        "fix_gamma": "False", 
        "momentum": "0.9", 
        "use_global_stats": "False"
      }, 
      "name": "stage3_unit19_bn3", 
      "inputs": [[503, 0], [504, 0], [505, 0]], 
      "backward_source_id": -1
    }, 
    {
      "op": "Activation", 
      "param": {"act_type": "relu"}, 
      "name": "stage3_unit19_relu3", 
      "inputs": [[506, 0]], 
      "backward_source_id": -1
    }, 
    {
      "op": "null", 
      "param": {}, 
      "name": "stage3_unit19_conv3_weight", 
      "inputs": [], 
      "backward_source_id": -1
    }, 
    {
      "op": "Convolution", 
      "param": {
        "cudnn_off": "False", 
        "cudnn_tune": "limited_workspace", 
        "dilate": "(1,1)", 
        "kernel": "(1,1)", 
        "no_bias": "True", 
        "num_filter": "1024", 
        "num_group": "1", 
        "pad": "(0,0)", 
        "stride": "(1,1)", 
        "workspace": "512"
      }, 
      "name": "stage3_unit19_conv3", 
      "inputs": [[507, 0], [508, 0]], 
      "backward_source_id": -1
    }, 
    {
      "op": "_Plus", 
      "param": {}, 
      "name": "_plus25", 
      "inputs": [[509, 0], [491, 0]], 
      "backward_source_id": -1
    }, 
    {
      "op": "null", 
      "param": {}, 
      "name": "stage3_unit20_bn1_gamma", 
      "inputs": [], 
      "backward_source_id": -1
    }, 
    {
      "op": "null", 
      "param": {}, 
      "name": "stage3_unit20_bn1_beta", 
      "inputs": [], 
      "backward_source_id": -1
    }, 
    {
      "op": "BatchNorm", 
      "param": {
        "eps": "2e-05", 
        "fix_gamma": "False", 
        "momentum": "0.9", 
        "use_global_stats": "False"
      }, 
      "name": "stage3_unit20_bn1", 
      "inputs": [[510, 0], [511, 0], [512, 0]], 
      "backward_source_id": -1
    }, 
    {
      "op": "Activation", 
      "param": {"act_type": "relu"}, 
      "name": "stage3_unit20_relu1", 
      "inputs": [[513, 0]], 
      "backward_source_id": -1
    }, 
    {
      "op": "null", 
      "param": {}, 
      "name": "stage3_unit20_conv1_weight", 
      "inputs": [], 
      "backward_source_id": -1
    }, 
    {
      "op": "Convolution", 
      "param": {
        "cudnn_off": "False", 
        "cudnn_tune": "limited_workspace", 
        "dilate": "(1,1)", 
        "kernel": "(1,1)", 
        "no_bias": "True", 
        "num_filter": "256", 
        "num_group": "1", 
        "pad": "(0,0)", 
        "stride": "(1,1)", 
        "workspace": "512"
      }, 
      "name": "stage3_unit20_conv1", 
      "inputs": [[514, 0], [515, 0]], 
      "backward_source_id": -1
    }, 
    {
      "op": "null", 
      "param": {}, 
      "name": "stage3_unit20_bn2_gamma", 
      "inputs": [], 
      "backward_source_id": -1
    }, 
    {
      "op": "null", 
      "param": {}, 
      "name": "stage3_unit20_bn2_beta", 
      "inputs": [], 
      "backward_source_id": -1
    }, 
    {
      "op": "BatchNorm", 
      "param": {
        "eps": "2e-05", 
        "fix_gamma": "False", 
        "momentum": "0.9", 
        "use_global_stats": "False"
      }, 
      "name": "stage3_unit20_bn2", 
      "inputs": [[516, 0], [517, 0], [518, 0]], 
      "backward_source_id": -1
    }, 
    {
      "op": "Activation", 
      "param": {"act_type": "relu"}, 
      "name": "stage3_unit20_relu2", 
      "inputs": [[519, 0]], 
      "backward_source_id": -1
    }, 
    {
      "op": "null", 
      "param": {}, 
      "name": "stage3_unit20_conv2_weight", 
      "inputs": [], 
      "backward_source_id": -1
    }, 
    {
      "op": "Convolution", 
      "param": {
        "cudnn_off": "False", 
        "cudnn_tune": "limited_workspace", 
        "dilate": "(1,1)", 
        "kernel": "(3,3)", 
        "no_bias": "True", 
        "num_filter": "256", 
        "num_group": "1", 
        "pad": "(1,1)", 
        "stride": "(1,1)", 
        "workspace": "512"
      }, 
      "name": "stage3_unit20_conv2", 
      "inputs": [[520, 0], [521, 0]], 
      "backward_source_id": -1
    }, 
    {
      "op": "null", 
      "param": {}, 
      "name": "stage3_unit20_bn3_gamma", 
      "inputs": [], 
      "backward_source_id": -1
    }, 
    {
      "op": "null", 
      "param": {}, 
      "name": "stage3_unit20_bn3_beta", 
      "inputs": [], 
      "backward_source_id": -1
    }, 
    {
      "op": "BatchNorm", 
      "param": {
        "eps": "2e-05", 
        "fix_gamma": "False", 
        "momentum": "0.9", 
        "use_global_stats": "False"
      }, 
      "name": "stage3_unit20_bn3", 
      "inputs": [[522, 0], [523, 0], [524, 0]], 
      "backward_source_id": -1
    }, 
    {
      "op": "Activation", 
      "param": {"act_type": "relu"}, 
      "name": "stage3_unit20_relu3", 
      "inputs": [[525, 0]], 
      "backward_source_id": -1
    }, 
    {
      "op": "null", 
      "param": {}, 
      "name": "stage3_unit20_conv3_weight", 
      "inputs": [], 
      "backward_source_id": -1
    }, 
    {
      "op": "Convolution", 
      "param": {
        "cudnn_off": "False", 
        "cudnn_tune": "limited_workspace", 
        "dilate": "(1,1)", 
        "kernel": "(1,1)", 
        "no_bias": "True", 
        "num_filter": "1024", 
        "num_group": "1", 
        "pad": "(0,0)", 
        "stride": "(1,1)", 
        "workspace": "512"
      }, 
      "name": "stage3_unit20_conv3", 
      "inputs": [[526, 0], [527, 0]], 
      "backward_source_id": -1
    }, 
    {
      "op": "_Plus", 
      "param": {}, 
      "name": "_plus26", 
      "inputs": [[528, 0], [510, 0]], 
      "backward_source_id": -1
    }, 
    {
      "op": "null", 
      "param": {}, 
      "name": "stage3_unit21_bn1_gamma", 
      "inputs": [], 
      "backward_source_id": -1
    }, 
    {
      "op": "null", 
      "param": {}, 
      "name": "stage3_unit21_bn1_beta", 
      "inputs": [], 
      "backward_source_id": -1
    }, 
    {
      "op": "BatchNorm", 
      "param": {
        "eps": "2e-05", 
        "fix_gamma": "False", 
        "momentum": "0.9", 
        "use_global_stats": "False"
      }, 
      "name": "stage3_unit21_bn1", 
      "inputs": [[529, 0], [530, 0], [531, 0]], 
      "backward_source_id": -1
    }, 
    {
      "op": "Activation", 
      "param": {"act_type": "relu"}, 
      "name": "stage3_unit21_relu1", 
      "inputs": [[532, 0]], 
      "backward_source_id": -1
    }, 
    {
      "op": "null", 
      "param": {}, 
      "name": "stage3_unit21_conv1_weight", 
      "inputs": [], 
      "backward_source_id": -1
    }, 
    {
      "op": "Convolution", 
      "param": {
        "cudnn_off": "False", 
        "cudnn_tune": "limited_workspace", 
        "dilate": "(1,1)", 
        "kernel": "(1,1)", 
        "no_bias": "True", 
        "num_filter": "256", 
        "num_group": "1", 
        "pad": "(0,0)", 
        "stride": "(1,1)", 
        "workspace": "512"
      }, 
      "name": "stage3_unit21_conv1", 
      "inputs": [[533, 0], [534, 0]], 
      "backward_source_id": -1
    }, 
    {
      "op": "null", 
      "param": {}, 
      "name": "stage3_unit21_bn2_gamma", 
      "inputs": [], 
      "backward_source_id": -1
    }, 
    {
      "op": "null", 
      "param": {}, 
      "name": "stage3_unit21_bn2_beta", 
      "inputs": [], 
      "backward_source_id": -1
    }, 
    {
      "op": "BatchNorm", 
      "param": {
        "eps": "2e-05", 
        "fix_gamma": "False", 
        "momentum": "0.9", 
        "use_global_stats": "False"
      }, 
      "name": "stage3_unit21_bn2", 
      "inputs": [[535, 0], [536, 0], [537, 0]], 
      "backward_source_id": -1
    }, 
    {
      "op": "Activation", 
      "param": {"act_type": "relu"}, 
      "name": "stage3_unit21_relu2", 
      "inputs": [[538, 0]], 
      "backward_source_id": -1
    }, 
    {
      "op": "null", 
      "param": {}, 
      "name": "stage3_unit21_conv2_weight", 
      "inputs": [], 
      "backward_source_id": -1
    }, 
    {
      "op": "Convolution", 
      "param": {
        "cudnn_off": "False", 
        "cudnn_tune": "limited_workspace", 
        "dilate": "(1,1)", 
        "kernel": "(3,3)", 
        "no_bias": "True", 
        "num_filter": "256", 
        "num_group": "1", 
        "pad": "(1,1)", 
        "stride": "(1,1)", 
        "workspace": "512"
      }, 
      "name": "stage3_unit21_conv2", 
      "inputs": [[539, 0], [540, 0]], 
      "backward_source_id": -1
    }, 
    {
      "op": "null", 
      "param": {}, 
      "name": "stage3_unit21_bn3_gamma", 
      "inputs": [], 
      "backward_source_id": -1
    }, 
    {
      "op": "null", 
      "param": {}, 
      "name": "stage3_unit21_bn3_beta", 
      "inputs": [], 
      "backward_source_id": -1
    }, 
    {
      "op": "BatchNorm", 
      "param": {
        "eps": "2e-05", 
        "fix_gamma": "False", 
        "momentum": "0.9", 
        "use_global_stats": "False"
      }, 
      "name": "stage3_unit21_bn3", 
      "inputs": [[541, 0], [542, 0], [543, 0]], 
      "backward_source_id": -1
    }, 
    {
      "op": "Activation", 
      "param": {"act_type": "relu"}, 
      "name": "stage3_unit21_relu3", 
      "inputs": [[544, 0]], 
      "backward_source_id": -1
    }, 
    {
      "op": "null", 
      "param": {}, 
      "name": "stage3_unit21_conv3_weight", 
      "inputs": [], 
      "backward_source_id": -1
    }, 
    {
      "op": "Convolution", 
      "param": {
        "cudnn_off": "False", 
        "cudnn_tune": "limited_workspace", 
        "dilate": "(1,1)", 
        "kernel": "(1,1)", 
        "no_bias": "True", 
        "num_filter": "1024", 
        "num_group": "1", 
        "pad": "(0,0)", 
        "stride": "(1,1)", 
        "workspace": "512"
      }, 
      "name": "stage3_unit21_conv3", 
      "inputs": [[545, 0], [546, 0]], 
      "backward_source_id": -1
    }, 
    {
      "op": "_Plus", 
      "param": {}, 
      "name": "_plus27", 
      "inputs": [[547, 0], [529, 0]], 
      "backward_source_id": -1
    }, 
    {
      "op": "null", 
      "param": {}, 
      "name": "stage3_unit22_bn1_gamma", 
      "inputs": [], 
      "backward_source_id": -1
    }, 
    {
      "op": "null", 
      "param": {}, 
      "name": "stage3_unit22_bn1_beta", 
      "inputs": [], 
      "backward_source_id": -1
    }, 
    {
      "op": "BatchNorm", 
      "param": {
        "eps": "2e-05", 
        "fix_gamma": "False", 
        "momentum": "0.9", 
        "use_global_stats": "False"
      }, 
      "name": "stage3_unit22_bn1", 
      "inputs": [[548, 0], [549, 0], [550, 0]], 
      "backward_source_id": -1
    }, 
    {
      "op": "Activation", 
      "param": {"act_type": "relu"}, 
      "name": "stage3_unit22_relu1", 
      "inputs": [[551, 0]], 
      "backward_source_id": -1
    }, 
    {
      "op": "null", 
      "param": {}, 
      "name": "stage3_unit22_conv1_weight", 
      "inputs": [], 
      "backward_source_id": -1
    }, 
    {
      "op": "Convolution", 
      "param": {
        "cudnn_off": "False", 
        "cudnn_tune": "limited_workspace", 
        "dilate": "(1,1)", 
        "kernel": "(1,1)", 
        "no_bias": "True", 
        "num_filter": "256", 
        "num_group": "1", 
        "pad": "(0,0)", 
        "stride": "(1,1)", 
        "workspace": "512"
      }, 
      "name": "stage3_unit22_conv1", 
      "inputs": [[552, 0], [553, 0]], 
      "backward_source_id": -1
    }, 
    {
      "op": "null", 
      "param": {}, 
      "name": "stage3_unit22_bn2_gamma", 
      "inputs": [], 
      "backward_source_id": -1
    }, 
    {
      "op": "null", 
      "param": {}, 
      "name": "stage3_unit22_bn2_beta", 
      "inputs": [], 
      "backward_source_id": -1
    }, 
    {
      "op": "BatchNorm", 
      "param": {
        "eps": "2e-05", 
        "fix_gamma": "False", 
        "momentum": "0.9", 
        "use_global_stats": "False"
      }, 
      "name": "stage3_unit22_bn2", 
      "inputs": [[554, 0], [555, 0], [556, 0]], 
      "backward_source_id": -1
    }, 
    {
      "op": "Activation", 
      "param": {"act_type": "relu"}, 
      "name": "stage3_unit22_relu2", 
      "inputs": [[557, 0]], 
      "backward_source_id": -1
    }, 
    {
      "op": "null", 
      "param": {}, 
      "name": "stage3_unit22_conv2_weight", 
      "inputs": [], 
      "backward_source_id": -1
    }, 
    {
      "op": "Convolution", 
      "param": {
        "cudnn_off": "False", 
        "cudnn_tune": "limited_workspace", 
        "dilate": "(1,1)", 
        "kernel": "(3,3)", 
        "no_bias": "True", 
        "num_filter": "256", 
        "num_group": "1", 
        "pad": "(1,1)", 
        "stride": "(1,1)", 
        "workspace": "512"
      }, 
      "name": "stage3_unit22_conv2", 
      "inputs": [[558, 0], [559, 0]], 
      "backward_source_id": -1
    }, 
    {
      "op": "null", 
      "param": {}, 
      "name": "stage3_unit22_bn3_gamma", 
      "inputs": [], 
      "backward_source_id": -1
    }, 
    {
      "op": "null", 
      "param": {}, 
      "name": "stage3_unit22_bn3_beta", 
      "inputs": [], 
      "backward_source_id": -1
    }, 
    {
      "op": "BatchNorm", 
      "param": {
        "eps": "2e-05", 
        "fix_gamma": "False", 
        "momentum": "0.9", 
        "use_global_stats": "False"
      }, 
      "name": "stage3_unit22_bn3", 
      "inputs": [[560, 0], [561, 0], [562, 0]], 
      "backward_source_id": -1
    }, 
    {
      "op": "Activation", 
      "param": {"act_type": "relu"}, 
      "name": "stage3_unit22_relu3", 
      "inputs": [[563, 0]], 
      "backward_source_id": -1
    }, 
    {
      "op": "null", 
      "param": {}, 
      "name": "stage3_unit22_conv3_weight", 
      "inputs": [], 
      "backward_source_id": -1
    }, 
    {
      "op": "Convolution", 
      "param": {
        "cudnn_off": "False", 
        "cudnn_tune": "limited_workspace", 
        "dilate": "(1,1)", 
        "kernel": "(1,1)", 
        "no_bias": "True", 
        "num_filter": "1024", 
        "num_group": "1", 
        "pad": "(0,0)", 
        "stride": "(1,1)", 
        "workspace": "512"
      }, 
      "name": "stage3_unit22_conv3", 
      "inputs": [[564, 0], [565, 0]], 
      "backward_source_id": -1
    }, 
    {
      "op": "_Plus", 
      "param": {}, 
      "name": "_plus28", 
      "inputs": [[566, 0], [548, 0]], 
      "backward_source_id": -1
    }, 
    {
      "op": "null", 
      "param": {}, 
      "name": "stage3_unit23_bn1_gamma", 
      "inputs": [], 
      "backward_source_id": -1
    }, 
    {
      "op": "null", 
      "param": {}, 
      "name": "stage3_unit23_bn1_beta", 
      "inputs": [], 
      "backward_source_id": -1
    }, 
    {
      "op": "BatchNorm", 
      "param": {
        "eps": "2e-05", 
        "fix_gamma": "False", 
        "momentum": "0.9", 
        "use_global_stats": "False"
      }, 
      "name": "stage3_unit23_bn1", 
      "inputs": [[567, 0], [568, 0], [569, 0]], 
      "backward_source_id": -1
    }, 
    {
      "op": "Activation", 
      "param": {"act_type": "relu"}, 
      "name": "stage3_unit23_relu1", 
      "inputs": [[570, 0]], 
      "backward_source_id": -1
    }, 
    {
      "op": "null", 
      "param": {}, 
      "name": "stage3_unit23_conv1_weight", 
      "inputs": [], 
      "backward_source_id": -1
    }, 
    {
      "op": "Convolution", 
      "param": {
        "cudnn_off": "False", 
        "cudnn_tune": "limited_workspace", 
        "dilate": "(1,1)", 
        "kernel": "(1,1)", 
        "no_bias": "True", 
        "num_filter": "256", 
        "num_group": "1", 
        "pad": "(0,0)", 
        "stride": "(1,1)", 
        "workspace": "512"
      }, 
      "name": "stage3_unit23_conv1", 
      "inputs": [[571, 0], [572, 0]], 
      "backward_source_id": -1
    }, 
    {
      "op": "null", 
      "param": {}, 
      "name": "stage3_unit23_bn2_gamma", 
      "inputs": [], 
      "backward_source_id": -1
    }, 
    {
      "op": "null", 
      "param": {}, 
      "name": "stage3_unit23_bn2_beta", 
      "inputs": [], 
      "backward_source_id": -1
    }, 
    {
      "op": "BatchNorm", 
      "param": {
        "eps": "2e-05", 
        "fix_gamma": "False", 
        "momentum": "0.9", 
        "use_global_stats": "False"
      }, 
      "name": "stage3_unit23_bn2", 
      "inputs": [[573, 0], [574, 0], [575, 0]], 
      "backward_source_id": -1
    }, 
    {
      "op": "Activation", 
      "param": {"act_type": "relu"}, 
      "name": "stage3_unit23_relu2", 
      "inputs": [[576, 0]], 
      "backward_source_id": -1
    }, 
    {
      "op": "null", 
      "param": {}, 
      "name": "stage3_unit23_conv2_weight", 
      "inputs": [], 
      "backward_source_id": -1
    }, 
    {
      "op": "Convolution", 
      "param": {
        "cudnn_off": "False", 
        "cudnn_tune": "limited_workspace", 
        "dilate": "(1,1)", 
        "kernel": "(3,3)", 
        "no_bias": "True", 
        "num_filter": "256", 
        "num_group": "1", 
        "pad": "(1,1)", 
        "stride": "(1,1)", 
        "workspace": "512"
      }, 
      "name": "stage3_unit23_conv2", 
      "inputs": [[577, 0], [578, 0]], 
      "backward_source_id": -1
    }, 
    {
      "op": "null", 
      "param": {}, 
      "name": "stage3_unit23_bn3_gamma", 
      "inputs": [], 
      "backward_source_id": -1
    }, 
    {
      "op": "null", 
      "param": {}, 
      "name": "stage3_unit23_bn3_beta", 
      "inputs": [], 
      "backward_source_id": -1
    }, 
    {
      "op": "BatchNorm", 
      "param": {
        "eps": "2e-05", 
        "fix_gamma": "False", 
        "momentum": "0.9", 
        "use_global_stats": "False"
      }, 
      "name": "stage3_unit23_bn3", 
      "inputs": [[579, 0], [580, 0], [581, 0]], 
      "backward_source_id": -1
    }, 
    {
      "op": "Activation", 
      "param": {"act_type": "relu"}, 
      "name": "stage3_unit23_relu3", 
      "inputs": [[582, 0]], 
      "backward_source_id": -1
    }, 
    {
      "op": "null", 
      "param": {}, 
      "name": "stage3_unit23_conv3_weight", 
      "inputs": [], 
      "backward_source_id": -1
    }, 
    {
      "op": "Convolution", 
      "param": {
        "cudnn_off": "False", 
        "cudnn_tune": "limited_workspace", 
        "dilate": "(1,1)", 
        "kernel": "(1,1)", 
        "no_bias": "True", 
        "num_filter": "1024", 
        "num_group": "1", 
        "pad": "(0,0)", 
        "stride": "(1,1)", 
        "workspace": "512"
      }, 
      "name": "stage3_unit23_conv3", 
      "inputs": [[583, 0], [584, 0]], 
      "backward_source_id": -1
    }, 
    {
      "op": "_Plus", 
      "param": {}, 
      "name": "_plus29", 
      "inputs": [[585, 0], [567, 0]], 
      "backward_source_id": -1
    }, 
    {
      "op": "null", 
      "param": {}, 
      "name": "stage4_unit1_bn1_gamma", 
      "inputs": [], 
      "backward_source_id": -1
    }, 
    {
      "op": "null", 
      "param": {}, 
      "name": "stage4_unit1_bn1_beta", 
      "inputs": [], 
      "backward_source_id": -1
    }, 
    {
      "op": "BatchNorm", 
      "param": {
        "eps": "2e-05", 
        "fix_gamma": "False", 
        "momentum": "0.9", 
        "use_global_stats": "False"
      }, 
      "name": "stage4_unit1_bn1", 
      "inputs": [[586, 0], [587, 0], [588, 0]], 
      "backward_source_id": -1
    }, 
    {
      "op": "Activation", 
      "param": {"act_type": "relu"}, 
      "name": "stage4_unit1_relu1", 
      "inputs": [[589, 0]], 
      "backward_source_id": -1
    }, 
    {
      "op": "null", 
      "param": {}, 
      "name": "stage4_unit1_conv1_weight", 
      "inputs": [], 
      "backward_source_id": -1
    }, 
    {
      "op": "Convolution", 
      "param": {
        "cudnn_off": "False", 
        "cudnn_tune": "limited_workspace", 
        "dilate": "(1,1)", 
        "kernel": "(1,1)", 
        "no_bias": "True", 
        "num_filter": "512", 
        "num_group": "1", 
        "pad": "(0,0)", 
        "stride": "(1,1)", 
        "workspace": "512"
      }, 
      "name": "stage4_unit1_conv1", 
      "inputs": [[590, 0], [591, 0]], 
      "backward_source_id": -1
    }, 
    {
      "op": "null", 
      "param": {}, 
      "name": "stage4_unit1_bn2_gamma", 
      "inputs": [], 
      "backward_source_id": -1
    }, 
    {
      "op": "null", 
      "param": {}, 
      "name": "stage4_unit1_bn2_beta", 
      "inputs": [], 
      "backward_source_id": -1
    }, 
    {
      "op": "BatchNorm", 
      "param": {
        "eps": "2e-05", 
        "fix_gamma": "False", 
        "momentum": "0.9", 
        "use_global_stats": "False"
      }, 
      "name": "stage4_unit1_bn2", 
      "inputs": [[592, 0], [593, 0], [594, 0]], 
      "backward_source_id": -1
    }, 
    {
      "op": "Activation", 
      "param": {"act_type": "relu"}, 
      "name": "stage4_unit1_relu2", 
      "inputs": [[595, 0]], 
      "backward_source_id": -1
    }, 
    {
      "op": "null", 
      "param": {}, 
      "name": "stage4_unit1_conv2_weight", 
      "inputs": [], 
      "backward_source_id": -1
    }, 
    {
      "op": "Convolution", 
      "param": {
        "cudnn_off": "False", 
        "cudnn_tune": "limited_workspace", 
        "dilate": "(1,1)", 
        "kernel": "(3,3)", 
        "no_bias": "True", 
        "num_filter": "512", 
        "num_group": "1", 
        "pad": "(1,1)", 
        "stride": "(2,2)", 
        "workspace": "512"
      }, 
      "name": "stage4_unit1_conv2", 
      "inputs": [[596, 0], [597, 0]], 
      "backward_source_id": -1
    }, 
    {
      "op": "null", 
      "param": {}, 
      "name": "stage4_unit1_bn3_gamma", 
      "inputs": [], 
      "backward_source_id": -1
    }, 
    {
      "op": "null", 
      "param": {}, 
      "name": "stage4_unit1_bn3_beta", 
      "inputs": [], 
      "backward_source_id": -1
    }, 
    {
      "op": "BatchNorm", 
      "param": {
        "eps": "2e-05", 
        "fix_gamma": "False", 
        "momentum": "0.9", 
        "use_global_stats": "False"
      }, 
      "name": "stage4_unit1_bn3", 
      "inputs": [[598, 0], [599, 0], [600, 0]], 
      "backward_source_id": -1
    }, 
    {
      "op": "Activation", 
      "param": {"act_type": "relu"}, 
      "name": "stage4_unit1_relu3", 
      "inputs": [[601, 0]], 
      "backward_source_id": -1
    }, 
    {
      "op": "null", 
      "param": {}, 
      "name": "stage4_unit1_conv3_weight", 
      "inputs": [], 
      "backward_source_id": -1
    }, 
    {
      "op": "Convolution", 
      "param": {
        "cudnn_off": "False", 
        "cudnn_tune": "limited_workspace", 
        "dilate": "(1,1)", 
        "kernel": "(1,1)", 
        "no_bias": "True", 
        "num_filter": "2048", 
        "num_group": "1", 
        "pad": "(0,0)", 
        "stride": "(1,1)", 
        "workspace": "512"
      }, 
      "name": "stage4_unit1_conv3", 
      "inputs": [[602, 0], [603, 0]], 
      "backward_source_id": -1
    }, 
    {
      "op": "null", 
      "param": {}, 
      "name": "stage4_unit1_sc_weight", 
      "inputs": [], 
      "backward_source_id": -1
    }, 
    {
      "op": "Convolution", 
      "param": {
        "cudnn_off": "False", 
        "cudnn_tune": "limited_workspace", 
        "dilate": "(1,1)", 
        "kernel": "(1,1)", 
        "no_bias": "True", 
        "num_filter": "2048", 
        "num_group": "1", 
        "pad": "(0,0)", 
        "stride": "(2,2)", 
        "workspace": "512"
      }, 
      "name": "stage4_unit1_sc", 
      "inputs": [[590, 0], [605, 0]], 
      "backward_source_id": -1
    }, 
    {
      "op": "_Plus", 
      "param": {}, 
      "name": "_plus30", 
      "inputs": [[604, 0], [606, 0]], 
      "backward_source_id": -1
    }, 
    {
      "op": "null", 
      "param": {}, 
      "name": "stage4_unit2_bn1_gamma", 
      "inputs": [], 
      "backward_source_id": -1
    }, 
    {
      "op": "null", 
      "param": {}, 
      "name": "stage4_unit2_bn1_beta", 
      "inputs": [], 
      "backward_source_id": -1
    }, 
    {
      "op": "BatchNorm", 
      "param": {
        "eps": "2e-05", 
        "fix_gamma": "False", 
        "momentum": "0.9", 
        "use_global_stats": "False"
      }, 
      "name": "stage4_unit2_bn1", 
      "inputs": [[607, 0], [608, 0], [609, 0]], 
      "backward_source_id": -1
    }, 
    {
      "op": "Activation", 
      "param": {"act_type": "relu"}, 
      "name": "stage4_unit2_relu1", 
      "inputs": [[610, 0]], 
      "backward_source_id": -1
    }, 
    {
      "op": "null", 
      "param": {}, 
      "name": "stage4_unit2_conv1_weight", 
      "inputs": [], 
      "backward_source_id": -1
    }, 
    {
      "op": "Convolution", 
      "param": {
        "cudnn_off": "False", 
        "cudnn_tune": "limited_workspace", 
        "dilate": "(1,1)", 
        "kernel": "(1,1)", 
        "no_bias": "True", 
        "num_filter": "512", 
        "num_group": "1", 
        "pad": "(0,0)", 
        "stride": "(1,1)", 
        "workspace": "512"
      }, 
      "name": "stage4_unit2_conv1", 
      "inputs": [[611, 0], [612, 0]], 
      "backward_source_id": -1
    }, 
    {
      "op": "null", 
      "param": {}, 
      "name": "stage4_unit2_bn2_gamma", 
      "inputs": [], 
      "backward_source_id": -1
    }, 
    {
      "op": "null", 
      "param": {}, 
      "name": "stage4_unit2_bn2_beta", 
      "inputs": [], 
      "backward_source_id": -1
    }, 
    {
      "op": "BatchNorm", 
      "param": {
        "eps": "2e-05", 
        "fix_gamma": "False", 
        "momentum": "0.9", 
        "use_global_stats": "False"
      }, 
      "name": "stage4_unit2_bn2", 
      "inputs": [[613, 0], [614, 0], [615, 0]], 
      "backward_source_id": -1
    }, 
    {
      "op": "Activation", 
      "param": {"act_type": "relu"}, 
      "name": "stage4_unit2_relu2", 
      "inputs": [[616, 0]], 
      "backward_source_id": -1
    }, 
    {
      "op": "null", 
      "param": {}, 
      "name": "stage4_unit2_conv2_weight", 
      "inputs": [], 
      "backward_source_id": -1
    }, 
    {
      "op": "Convolution", 
      "param": {
        "cudnn_off": "False", 
        "cudnn_tune": "limited_workspace", 
        "dilate": "(1,1)", 
        "kernel": "(3,3)", 
        "no_bias": "True", 
        "num_filter": "512", 
        "num_group": "1", 
        "pad": "(1,1)", 
        "stride": "(1,1)", 
        "workspace": "512"
      }, 
      "name": "stage4_unit2_conv2", 
      "inputs": [[617, 0], [618, 0]], 
      "backward_source_id": -1
    }, 
    {
      "op": "null", 
      "param": {}, 
      "name": "stage4_unit2_bn3_gamma", 
      "inputs": [], 
      "backward_source_id": -1
    }, 
    {
      "op": "null", 
      "param": {}, 
      "name": "stage4_unit2_bn3_beta", 
      "inputs": [], 
      "backward_source_id": -1
    }, 
    {
      "op": "BatchNorm", 
      "param": {
        "eps": "2e-05", 
        "fix_gamma": "False", 
        "momentum": "0.9", 
        "use_global_stats": "False"
      }, 
      "name": "stage4_unit2_bn3", 
      "inputs": [[619, 0], [620, 0], [621, 0]], 
      "backward_source_id": -1
    }, 
    {
      "op": "Activation", 
      "param": {"act_type": "relu"}, 
      "name": "stage4_unit2_relu3", 
      "inputs": [[622, 0]], 
      "backward_source_id": -1
    }, 
    {
      "op": "null", 
      "param": {}, 
      "name": "stage4_unit2_conv3_weight", 
      "inputs": [], 
      "backward_source_id": -1
    }, 
    {
      "op": "Convolution", 
      "param": {
        "cudnn_off": "False", 
        "cudnn_tune": "limited_workspace", 
        "dilate": "(1,1)", 
        "kernel": "(1,1)", 
        "no_bias": "True", 
        "num_filter": "2048", 
        "num_group": "1", 
        "pad": "(0,0)", 
        "stride": "(1,1)", 
        "workspace": "512"
      }, 
      "name": "stage4_unit2_conv3", 
      "inputs": [[623, 0], [624, 0]], 
      "backward_source_id": -1
    }, 
    {
      "op": "_Plus", 
      "param": {}, 
      "name": "_plus31", 
      "inputs": [[625, 0], [607, 0]], 
      "backward_source_id": -1
    }, 
    {
      "op": "null", 
      "param": {}, 
      "name": "stage4_unit3_bn1_gamma", 
      "inputs": [], 
      "backward_source_id": -1
    }, 
    {
      "op": "null", 
      "param": {}, 
      "name": "stage4_unit3_bn1_beta", 
      "inputs": [], 
      "backward_source_id": -1
    }, 
    {
      "op": "BatchNorm", 
      "param": {
        "eps": "2e-05", 
        "fix_gamma": "False", 
        "momentum": "0.9", 
        "use_global_stats": "False"
      }, 
      "name": "stage4_unit3_bn1", 
      "inputs": [[626, 0], [627, 0], [628, 0]], 
      "backward_source_id": -1
    }, 
    {
      "op": "Activation", 
      "param": {"act_type": "relu"}, 
      "name": "stage4_unit3_relu1", 
      "inputs": [[629, 0]], 
      "backward_source_id": -1
    }, 
    {
      "op": "null", 
      "param": {}, 
      "name": "stage4_unit3_conv1_weight", 
      "inputs": [], 
      "backward_source_id": -1
    }, 
    {
      "op": "Convolution", 
      "param": {
        "cudnn_off": "False", 
        "cudnn_tune": "limited_workspace", 
        "dilate": "(1,1)", 
        "kernel": "(1,1)", 
        "no_bias": "True", 
        "num_filter": "512", 
        "num_group": "1", 
        "pad": "(0,0)", 
        "stride": "(1,1)", 
        "workspace": "512"
      }, 
      "name": "stage4_unit3_conv1", 
      "inputs": [[630, 0], [631, 0]], 
      "backward_source_id": -1
    }, 
    {
      "op": "null", 
      "param": {}, 
      "name": "stage4_unit3_bn2_gamma", 
      "inputs": [], 
      "backward_source_id": -1
    }, 
    {
      "op": "null", 
      "param": {}, 
      "name": "stage4_unit3_bn2_beta", 
      "inputs": [], 
      "backward_source_id": -1
    }, 
    {
      "op": "BatchNorm", 
      "param": {
        "eps": "2e-05", 
        "fix_gamma": "False", 
        "momentum": "0.9", 
        "use_global_stats": "False"
      }, 
      "name": "stage4_unit3_bn2", 
      "inputs": [[632, 0], [633, 0], [634, 0]], 
      "backward_source_id": -1
    }, 
    {
      "op": "Activation", 
      "param": {"act_type": "relu"}, 
      "name": "stage4_unit3_relu2", 
      "inputs": [[635, 0]], 
      "backward_source_id": -1
    }, 
    {
      "op": "null", 
      "param": {}, 
      "name": "stage4_unit3_conv2_weight", 
      "inputs": [], 
      "backward_source_id": -1
    }, 
    {
      "op": "Convolution", 
      "param": {
        "cudnn_off": "False", 
        "cudnn_tune": "limited_workspace", 
        "dilate": "(1,1)", 
        "kernel": "(3,3)", 
        "no_bias": "True", 
        "num_filter": "512", 
        "num_group": "1", 
        "pad": "(1,1)", 
        "stride": "(1,1)", 
        "workspace": "512"
      }, 
      "name": "stage4_unit3_conv2", 
      "inputs": [[636, 0], [637, 0]], 
      "backward_source_id": -1
    }, 
    {
      "op": "null", 
      "param": {}, 
      "name": "stage4_unit3_bn3_gamma", 
      "inputs": [], 
      "backward_source_id": -1
    }, 
    {
      "op": "null", 
      "param": {}, 
      "name": "stage4_unit3_bn3_beta", 
      "inputs": [], 
      "backward_source_id": -1
    }, 
    {
      "op": "BatchNorm", 
      "param": {
        "eps": "2e-05", 
        "fix_gamma": "False", 
        "momentum": "0.9", 
        "use_global_stats": "False"
      }, 
      "name": "stage4_unit3_bn3", 
      "inputs": [[638, 0], [639, 0], [640, 0]], 
      "backward_source_id": -1
    }, 
    {
      "op": "Activation", 
      "param": {"act_type": "relu"}, 
      "name": "stage4_unit3_relu3", 
      "inputs": [[641, 0]], 
      "backward_source_id": -1
    }, 
    {
      "op": "null", 
      "param": {}, 
      "name": "stage4_unit3_conv3_weight", 
      "inputs": [], 
      "backward_source_id": -1
    }, 
    {
      "op": "Convolution", 
      "param": {
        "cudnn_off": "False", 
        "cudnn_tune": "limited_workspace", 
        "dilate": "(1,1)", 
        "kernel": "(1,1)", 
        "no_bias": "True", 
        "num_filter": "2048", 
        "num_group": "1", 
        "pad": "(0,0)", 
        "stride": "(1,1)", 
        "workspace": "512"
      }, 
      "name": "stage4_unit3_conv3", 
      "inputs": [[642, 0], [643, 0]], 
      "backward_source_id": -1
    }, 
    {
      "op": "_Plus", 
      "param": {}, 
      "name": "_plus32", 
      "inputs": [[644, 0], [626, 0]], 
      "backward_source_id": -1
    }, 
    {
      "op": "null", 
      "param": {}, 
      "name": "bn1_gamma", 
      "inputs": [], 
      "backward_source_id": -1
    }, 
    {
      "op": "null", 
      "param": {}, 
      "name": "bn1_beta", 
      "inputs": [], 
      "backward_source_id": -1
    }, 
    {
      "op": "BatchNorm", 
      "param": {
        "eps": "2e-05", 
        "fix_gamma": "False", 
        "momentum": "0.9", 
        "use_global_stats": "False"
      }, 
      "name": "bn1", 
      "inputs": [[645, 0], [646, 0], [647, 0]], 
      "backward_source_id": -1
    }, 
    {
      "op": "Activation", 
      "param": {"act_type": "relu"}, 
      "name": "relu1", 
      "inputs": [[648, 0]], 
      "backward_source_id": -1
    }, 
    {
      "op": "Pooling", 
      "param": {
        "global_pool": "True", 
        "kernel": "(7,7)", 
        "pad": "(0,0)", 
        "pool_type": "avg", 
        "pooling_convention": "valid", 
        "stride": "(1,1)"
      }, 
      "name": "pool1", 
      "inputs": [[649, 0]], 
      "backward_source_id": -1
    }, 
    {
      "op": "Flatten", 
      "param": {}, 
      "name": "flatten0", 
      "inputs": [[650, 0]], 
      "backward_source_id": -1
    }, 
    {
      "op": "null", 
      "param": {}, 
      "name": "fc1_weight", 
      "inputs": [], 
      "backward_source_id": -1
    }, 
    {
      "op": "null", 
      "param": {}, 
      "name": "fc1_bias", 
      "inputs": [], 
      "backward_source_id": -1
    }, 
    {
      "op": "FullyConnected", 
      "param": {
        "no_bias": "False", 
        "num_hidden": "1000"
      }, 
      "name": "fc1", 
      "inputs": [[651, 0], [652, 0], [653, 0]], 
      "backward_source_id": -1
    }, 
    {
      "op": "null", 
      "param": {}, 
      "name": "softmax_label", 
      "inputs": [], 
      "backward_source_id": -1
    }, 
    {
      "op": "SoftmaxOutput", 
      "param": {
        "grad_scale": "1", 
        "ignore_label": "-1", 
        "multi_output": "False", 
        "normalization": "null", 
        "out_grad": "False", 
        "preserve_shape": "False", 
        "use_ignore": "False"
      }, 
      "name": "softmax", 
      "inputs": [[654, 0], [655, 0]], 
      "backward_source_id": -1
    }
  ], 
  "arg_nodes": [
    0, 
    1, 
    2, 
    4, 
    6, 
    7, 
    11, 
    12, 
    15, 
    17, 
    18, 
    21, 
    23, 
    24, 
    27, 
    29, 
    32, 
    33, 
    36, 
    38, 
    39, 
    42, 
    44, 
    45, 
    48, 
    51, 
    52, 
    55, 
    57, 
    58, 
    61, 
    63, 
    64, 
    67, 
    70, 
    71, 
    74, 
    76, 
    77, 
    80, 
    82, 
    83, 
    86, 
    88, 
    91, 
    92, 
    95, 
    97, 
    98, 
    101, 
    103, 
    104, 
    107, 
    110, 
    111, 
    114, 
    116, 
    117, 
    120, 
    122, 
    123, 
    126, 
    129, 
    130, 
    133, 
    135, 
    136, 
    139, 
    141, 
    142, 
    145, 
    148, 
    149, 
    152, 
    154, 
    155, 
    158, 
    160, 
    161, 
    164, 
    166, 
    169, 
    170, 
    173, 
    175, 
    176, 
    179, 
    181, 
    182, 
    185, 
    188, 
    189, 
    192, 
    194, 
    195, 
    198, 
    200, 
    201, 
    204, 
    207, 
    208, 
    211, 
    213, 
    214, 
    217, 
    219, 
    220, 
    223, 
    226, 
    227, 
    230, 
    232, 
    233, 
    236, 
    238, 
    239, 
    242, 
    245, 
    246, 
    249, 
    251, 
    252, 
    255, 
    257, 
    258, 
    261, 
    264, 
    265, 
    268, 
    270, 
    271, 
    274, 
    276, 
    277, 
    280, 
    283, 
    284, 
    287, 
    289, 
    290, 
    293, 
    295, 
    296, 
    299, 
    302, 
    303, 
    306, 
    308, 
    309, 
    312, 
    314, 
    315, 
    318, 
    321, 
    322, 
    325, 
    327, 
    328, 
    331, 
    333, 
    334, 
    337, 
    340, 
    341, 
    344, 
    346, 
    347, 
    350, 
    352, 
    353, 
    356, 
    359, 
    360, 
    363, 
    365, 
    366, 
    369, 
    371, 
    372, 
    375, 
    378, 
    379, 
    382, 
    384, 
    385, 
    388, 
    390, 
    391, 
    394, 
    397, 
    398, 
    401, 
    403, 
    404, 
    407, 
    409, 
    410, 
    413, 
    416, 
    417, 
    420, 
    422, 
    423, 
    426, 
    428, 
    429, 
    432, 
    435, 
    436, 
    439, 
    441, 
    442, 
    445, 
    447, 
    448, 
    451, 
    454, 
    455, 
    458, 
    460, 
    461, 
    464, 
    466, 
    467, 
    470, 
    473, 
    474, 
    477, 
    479, 
    480, 
    483, 
    485, 
    486, 
    489, 
    492, 
    493, 
    496, 
    498, 
    499, 
    502, 
    504, 
    505, 
    508, 
    511, 
    512, 
    515, 
    517, 
    518, 
    521, 
    523, 
    524, 
    527, 
    530, 
    531, 
    534, 
    536, 
    537, 
    540, 
    542, 
    543, 
    546, 
    549, 
    550, 
    553, 
    555, 
    556, 
    559, 
    561, 
    562, 
    565, 
    568, 
    569, 
    572, 
    574, 
    575, 
    578, 
    580, 
    581, 
    584, 
    587, 
    588, 
    591, 
    593, 
    594, 
    597, 
    599, 
    600, 
    603, 
    605, 
    608, 
    609, 
    612, 
    614, 
    615, 
    618, 
    620, 
    621, 
    624, 
    627, 
    628, 
    631, 
    633, 
    634, 
    637, 
    639, 
    640, 
    643, 
    646, 
    647, 
    652, 
    653, 
    655
  ], 
  "heads": [[656, 0]]
}